p1_model.pt (torch, 565263 bytes, 11 tensors)

layers.0.weight f4 [32, 5]
000000 62 bd 29 3e cd 0d 48 3d 82 dd 5b 3e 73 ca 4d 3e
       0.1657615 0.048841286 0.21471217 0.2009676
000010 d2 4b c0 be 5a 79 d0 be cb 52 b0 be 3c c6 22 be
       -0.37557846 -0.40717584 -0.34438166 -0.15895933
000020 6f bb c0 3e da f6 07 3e 9a 0f ba 3e d1 f3 8e be
       0.37643 0.1327776 0.36340028 -0.27920392
000030 69 63 38 be 3b e0 78 be 77 7c 74 3e 35 32 09 bf
       -0.18006672 -0.24304287 0.23875605 -0.53592235
000040 cb 7f b6 3e 86 53 06 bd d5 c9 6b be 12 ba 70 3e
       0.35644373 -0.032794498 -0.23026212 0.2350848
000050 24 91 c6 bc 9f da 1e be d3 ba 08 3e c5 5c bf 3e
       -0.02423913 -0.15513085 0.13352518 0.37375465
000060 b9 a7 e1 be fd ce fa be 6e 97 85 3c 35 23 c0 be
       -0.44073275 -0.48986045 0.016307559 -0.3752686
000070 cc 0e da 3e f9 eb c2 be 87 36 b3 bd e9 ca 9d bd
       0.42589414 -0.38070658 -0.08750635 -0.07704718
000080 ca af 23 3e f6 a6 97 be 9b b6 2e 3e d0 4b 08 3e
       0.15985027 -0.2961957 0.17061846 0.1331017
000090 ac a7 b4 3e 07 11 9a be 9a 09 c6 bd 67 ce 94 be
       0.35284173 -0.30091116 -0.096698 -0.29063722
0000a0 2e 23 4d 3e a3 ec 23 be 68 42 d2 3e b3 84 44 3c
       0.20032951 -0.16008238 0.4106629 0.011994529
0000b0 58 4f 83 3c 63 ed 00 bf 57 04 da 3e 0e 95 7f 3e
       0.016029045 -0.50362223 0.42581436 0.24959204
0000c0 49 d9 5f 3e e9 71 b5 be 17 09 34 3e c7 95 9f be
       0.21860231 -0.3543847 0.17581593 -0.3116896
0000d0 ad 89 07 be 45 63 d8 3e 44 e3 ad 3d 2b 5d f6 be
       -0.13236113 0.42263237 0.08490613 -0.48117957
0000e0 02 4b 17 be 83 8f e0 3e e1 d8 1f be 36 f3 e1 bd
       -0.14774707 0.4385949 -0.15610076 -0.11032717
0000f0 a4 c5 ec be da 45 6d 3e 84 f7 cf be fa bc 1a 3e
       -0.46244538 0.23171178 -0.40618527 0.15111151
000100 e5 91 c7 be 13 9d 10 3f 40 bc a9 3e 11 7c ea 3e
       -0.38978496 0.56489676 0.33151436 0.4579778
000110 65 78 5d be cb b7 ae 3e 2b 36 14 be 07 78 b3 bd
       -0.21627958 0.34124598 -0.14473788 -0.08763128
000120 13 b9 69 3e b8 a1 62 3e 09 95 fe 3d eb a9 a9 3e
       0.22824506 0.22132003 0.1243077 0.3313745
000130 bd 7f d0 3e f9 92 6d 3e e3 85 a1 bd 21 44 80 3d
       0.40722457 0.23200597 -0.07886865 0.062629946
000140 77 0e 6a 3d 64 13 94 bd c4 cb f6 be 4f 9e a5 3e
       0.0571427 -0.07230261 -0.48202336 0.32347342
000150 2d 1b ef be 52 19 fe be 59 d3 2f 3d a7 a6 b4 3e
       -0.4670042 -0.49628693 0.042926166 0.35283396
000160 34 cd 97 3e fe f9 92 3e d0 8d d9 3e 6b c0 92 3e
       0.29648745 0.28706354 0.42491007 0.28662428
000170 5d 6c 99 bb 4c b7 6b 3e a7 14 37 be 3f 8f c0 3e
       -0.0046821074 0.23019141 -0.17878972 0.37609288
000180 de c1 ea be 9c df 5e be 04 10 85 3d 85 fa b8 be
       -0.45851034 -0.21764988 0.06497195 -0.3612863
000190 41 ec b6 3e b3 4c 00 be 15 e3 77 3e ad e2 91 be
       0.35727122 -0.12529258 0.24207719 -0.28493252
0001a0 6c fa 39 be cd b5 1e 3e 7f 80 88 be 2f e2 81 3e
       -0.18161935 0.15499039 -0.26660535 0.25367877
0001b0 7e 4d d8 3e d3 68 83 3e 9f 3a 49 3e 61 78 5a bb
       0.42246622 0.25665912 0.19651268 -0.0033335912
0001c0 1f b4 8d 3e cf f2 68 3e 1a 4d a2 3e 8b 67 5c bd
       0.27676484 0.22748874 0.3169945 -0.053809684
0001d0 aa 4b 0e be 1b 4f b9 be ee 77 20 bc 0d 52 a3 3d
       -0.13896051 -0.36193165 -0.0097942185 0.07974634
0001e0 7e b7 ca be d0 61 bf be 5a f5 40 3e ea 2a d3 3c
       -0.39593118 -0.37379313 0.18843594 0.025777299
0001f0 4e 27 7d be b4 89 0e bf 5f 93 c8 3e 67 96 93 be
       -0.24722025 -0.5567887 0.39174935 -0.28825685
000200 68 6b 03 be 32 fd 8f 3d e6 87 25 3e 6b 5c ce be
       -0.12833941 0.07030715 0.16165122 -0.40304884
000210 a2 dd 9d 3e 04 27 33 3d 6c 95 6e 3d ce aa f0 3e
       0.30833155 0.04373838 0.05824797 0.47005314
000220 0e f3 b9 3e 54 e0 23 be 1d e6 95 3e 3f 58 a2 3e
       0.3631825 -0.16003543 0.29277125 0.3170795
000230 78 5a 68 3d 63 58 5e 3c cb 70 ec bd eb 50 39 be
       0.056726903 0.013570878 -0.11544951 -0.18097274
000240 fd 18 d7 3e 23 fc 18 3e 3f 4e 21 3e 4d 9e 7c 3e
       0.42011252 0.14939933 0.15752505 0.24669762
000250 ec 48 93 3e 4b 42 78 be 13 b6 cd 3e cc 55 93 bd
       0.28766572 -0.24244039 0.40177974 -0.07194099
000260 ca cd 8b 3e d2 7a 21 3e 98 1b b9 3e 6d 1d 83 3e
       0.27305442 0.15769508 0.36153865 0.25608388
000270 7a 26 61 3d 26 fa 13 3e c4 28 81 3e 5b c7 9e be
       0.054968335 0.14450893 0.25226414 -0.3101147

layers.0.bias f4 [32]
000000 9b 49 9d 3e 86 8d c1 be 2f 4d d3 3e 59 bf 6c 3e
       0.3072022 -0.37803286 0.41269824 0.23119868
000010 fa 04 c9 3e 15 5f 4a be aa c2 20 3e 07 07 9d 3e
       0.3926161 -0.19762833 0.15699258 0.30669424
000020 c9 00 3f 3e 88 d5 4d bd 79 d7 41 be d3 0f 9c 3d
       0.18652643 -0.050252467 -0.18929853 0.07620206
000030 8a 39 c6 3a 0e 4f 98 3d fa f3 39 bd b2 57 e6 3e
       0.0015123349 0.074369535 -0.04539869 0.4498878
000040 fc 58 fb 3c 25 56 8c 3e 60 ec 81 3e 1a bc 18 be
       0.03068208 0.27409473 0.25375652 -0.14915505
000050 e2 a3 3c be b4 87 a7 bd b1 42 ec 3e d0 84 d9 3d
       -0.18421891 -0.0818018 0.46144632 0.10621035
000060 b9 e8 25 3d 87 1b 82 be 2e 43 c4 be b2 91 85 be
       0.040505145 -0.25411627 -0.38332504 -0.2608772
000070 68 b8 fb be cd 83 7d be 07 35 10 3e f5 42 fe 3e
       -0.49164128 -0.2475731 0.14082728 0.4966046

layers.2.weight f4 [128, 32]
000000 f8 e7 8d bc f7 c4 40 3d e0 4b 5f 3c e4 ab e5 bc
       -0.017322525 0.04706284 0.01362893 -0.028036065
000010 89 4c 48 be 0a 5a 56 be 17 0b 75 bd 50 bb 99 3d
       -0.19560446 -0.20932785 -0.05982503 0.0750643
000020 4f fc 84 bc 78 be 48 be d5 ae fd bd c2 1b 4d 3e
       -0.016233591 -0.19603908 -0.12386862 0.2003012
000030 41 d5 ab 3c e2 42 29 3e b4 2f 63 be 52 01 19 3e
       0.02097571 0.1652942 -0.22186166 0.1494191
000040 52 c2 46 bd ea 0a 0c 3b 18 e3 38 3e a3 7b 9e 3d
       -0.048525162 0.002136881 0.1805538 0.077384256
000050 cf e4 3d be bb 0c 5c be d4 30 af bb 72 13 16 be
       -0.18544315 -0.21489231 -0.005346397 -0.14655855
000060 05 5a 85 3d 7f 30 55 3a 65 fe 95 3d fe b5 4c bd
       0.065113105 0.00081325317 0.073239125 -0.04997825
000070 9a 31 68 3d 94 d9 ce bd be fb f3 bd 2a bd ff 3d
       0.05668793 -0.101000935 -0.119132504 0.12487252
000080 6a 08 02 be ce 75 62 3c ec aa 36 be cb 43 ea bd
       -0.12698522 0.013822032 -0.17838639 -0.11438712
000090 3b 19 4a 3e b9 79 53 be c9 f7 24 3e f4 68 18 bd
       0.19736187 -0.20651902 0.16110148 -0.037209466
0000a0 96 37 77 be dd 3a aa 3d b9 da 4c bd eb 89 1c bd
       -0.24142298 0.083120085 -0.050013278 -0.038217466
0000b0 97 57 20 3e 99 90 cb 3d 1e 63 c0 bd e8 a2 fb bd
       0.15658413 0.09939689 -0.09393905 -0.12286931
0000c0 9a 09 84 bd 83 d0 5d 3e e2 53 97 be d6 5a 04 bd
       -0.06447144 0.21661572 -0.29556185 -0.03231319
0000d0 ad 30 3d 3d 8c ec d4 bd 81 a4 91 bc 1c 72 0c 3e
       0.046189 -0.1039668 -0.017778637 0.13715404
0000e0 26 20 0c 3e 2a 77 31 3e c9 c3 87 bd cf f7 c7 bd
       0.13684139 0.17330614 -0.0662914 -0.097640626
0000f0 fb b7 37 bd fc b3 95 bd f8 dc 8d bd 27 2a ee 3d
       -0.04485319 -0.0730972 -0.06926912 0.11629134
000100 73 34 8e bd 7d c0 41 be 31 25 0b 3e 79 8d 0d 3d
       -0.06943598 -0.18921085 0.13588406 0.034558747
000110 40 66 6c 3c 93 12 8f bd b5 73 3d 3e d3 d1 99 bd
       0.014428675 -0.069859646 0.1850117 -0.07510724
000120 a5 87 2b be 00 38 2e be 78 53 62 be ab 17 e5 3d
       -0.16750963 -0.1701355 -0.22102153 0.11186155
000130 d5 b7 b5 3b d2 42 b7 3d 07 3d 6f 3e 33 68 a4 3d
       0.005545596 0.08948292 0.23363124 0.08027687
000140 0a 7e 70 be 57 5e 69 be bd 37 45 bd 32 a4 3e 3d
       -0.2348558 -0.22789894 -0.04814886 0.046543308
000150 1d 70 22 bd 80 62 2a 3e 29 3f df 3c 39 02 02 3e
       -0.0396577 0.16639137 0.027251797 0.1269616
000160 94 48 2c bc 79 f1 1b 3d 67 f5 1f 3e 5c 96 83 bd
       -0.010515351 0.038072083 0.15620957 -0.06425163
000170 0f bf e7 3c 83 a7 ca be e9 b9 09 be 0a ac 06 be
       0.028289346 -0.39580926 -0.13449825 -0.13151565
000180 19 98 30 bd aa 01 04 be 73 82 d5 3d 1f 8a 89 bd
       -0.0431138 -0.1289126 0.10425272 -0.06715798
000190 0a 1f b5 be d7 61 d3 3d 87 19 15 3e 11 8a 39 be
       -0.35375243 0.10321396 0.14560519 -0.18119074
0001a0 80 8c 9a bd 0b 21 99 bd 9c 97 7a be c7 ef 7d 3d
       -0.075463295 -0.074770056 -0.24471897 0.061996248
0001b0 6e d2 85 3d 90 2c 4c 3d 53 6e b3 bd e0 28 bc 3d
       0.06534277 0.049847186 -0.08761277 0.09187484
0001c0 92 43 d8 3d d7 47 bd 3d 14 3a 2a 3d 25 b0 5c 3e
       0.10559763 0.09242218 0.041559294 0.21551569
0001d0 b9 26 bf bc 5d 2e 5f be 66 91 ef 3d de 69 1c 3c
       -0.023333894 -0.2179503 0.116976544 0.009546725
0001e0 2d f8 d0 bd 1e 2b 18 3e 3b f8 7d be 09 0f d4 3d
       -0.10203586 0.14860198 -0.24801724 0.1035443
0001f0 78 9c 82 bc 34 5e 0f 3d 4a c1 81 3d 66 76 0f be
       -0.01594375 0.03500195 0.06335695 -0.14010009
000200 56 8f 3e be 28 bd 37 3e 5c 84 e3 bd 7a 1a 01 3e
       -0.18609366 0.17943251 -0.1110923 0.12607756
000210 75 33 cf 3a fa 70 d6 bd 47 0c 2a 3d 23 b4 db bd
       0.0015808182 -0.10470767 0.041515615 -0.10727718
000220 62 bc 41 be 84 c4 1c 3b 06 10 2d be 7c f7 a4 3c
       -0.18919519 0.0023920843 -0.16900644 0.020137541
000230 c8 57 5f 3d 62 bd c7 bd 9a 3b 3b 3e 37 99 82 bc
       0.054527074 -0.09752919 0.18284455 -0.0159422
000240 40 b9 dd be 19 05 48 3e b4 49 54 be 29 71 df 3d
       -0.43305397 0.19533195 -0.2073124 0.109102555
000250 93 04 87 bd 85 b7 30 3e 75 5a c2 bd 91 91 70 bd
       -0.06592669 0.17257507 -0.094899096 -0.058732573
000260 2d 4e c8 3d 43 15 b1 3d cb 69 e6 3c ac cc b1 bd
       0.09780536 0.086466335 0.028126618 -0.08681616
000270 66 55 28 3e 9e 62 8a bd 69 1a 40 be 5f 9d 8d bd
       0.16438827 -0.06757091 -0.18760075 -0.06914782
000280 7d 7a 2f 3d a8 da 4a be ad 80 12 bc 92 11 fb 3d
       0.042841423 -0.19809973 -0.0089418115 0.12259211
000290 fb 52 14 be 5a 4e cc 3d 4f 6a 72 be 0a 8c 51 bd
       -0.1448478 0.09975882 -0.23673366 -0.051158942
0002a0 3a 55 75 3d 19 c9 32 3e 60 97 45 3e 0c 1e 39 be
       0.05989573 0.17459525 0.19296026 -0.18077868
0002b0 14 67 14 be 6e d8 ca bc 6c 0b 79 bd 0a 3a fd 3d
       -0.14492446 -0.024761405 -0.06080191 0.12364586
0002c0 7a 42 02 be 50 d0 83 3d b0 8a 24 3e 36 ef 2a 3e
       -0.12720671 0.06436217 0.1606853 0.16692814
0002d0 8b 82 12 3e 2a 19 8d 3d 1b d4 7d bc 7d 77 56 be
       0.1430761 0.06889565 -0.015492464 -0.20944019
0002e0 df 24 ad bd b3 24 7b bd 01 94 fb bc de f2 a0 3d
       -0.08454298 -0.061314296 -0.030710222 0.07858823
0002f0 ab b7 ab be cc cd 4d 3e 37 a0 7b 3d d3 79 1c 3d
       -0.33538565 0.20098037 0.06143209 0.038202118
000300 5c 66 65 3d c5 e6 fb 3d c0 93 c5 bd 3d 54 2b 3e
       0.05600582 0.12299875 -0.09647322 0.16731353
000310 7c a2 c0 3d 85 74 20 3e 9d 2d ed 3d e5 fb 30 be
       0.094059914 0.15669449 0.11580966 -0.1728359
000320 be 9b 31 bc 6e 8b 59 3c ba 40 4f bd 16 28 52 3e
       -0.0108403545 0.0132778715 -0.050598837 0.20523104
000330 b1 4a 51 3d 70 b6 5d be 50 64 0a be c5 fb cf bc
       0.051096622 -0.21651626 -0.13514829 -0.025388608
000340 4b 5f 0a be cf 8a 9d bc ce 35 5b be 7d 0e 06 be
       -0.13512914 -0.019231228 -0.21407244 -0.13091464
000350 14 45 2e be a0 88 90 bd 9c 73 9b 3b c1 c5 c8 bc
       -0.17018539 -0.07057309 0.0047440063 -0.024508359
000360 d1 cb 95 3c 77 49 11 3e d0 78 a4 ba dc a6 90 bb
       0.018285664 0.14188181 -0.0012548212 -0.0044144224
000370 16 62 60 bd 2b 18 2b 3e 23 f0 ed bd 58 6c 63 be
       -0.054781042 0.16708438 -0.11618068 -0.22209299
000380 e0 5e 92 3c e0 80 1e 3d 40 7d 26 bb 7e 4d 0e be
       0.017867506 0.038697124 -0.0025404245 -0.13896748
000390 d0 c2 3b bd 7c 27 14 be 10 b1 4e bc f0 22 0b 3c
       -0.045840085 -0.14468187 -0.012615457 0.0084922165
0003a0 bc bb 5f 3d 84 cc 06 bd 12 4e 2c be 80 3a f5 bb
       0.054622397 -0.032909885 -0.16826656 -0.0074837804
0003b0 70 ea 1a 3c 61 c2 00 3e 9a ce c6 3d b1 2f 0b be
       0.009455308 0.1257415 0.09707375 -0.13592412
0003c0 09 da 88 bd 3c 29 2c 3d e0 92 79 3c a5 2e 1b be
       -0.06682212 0.04203151 0.015232772 -0.15154512
0003d0 35 be 13 be ee 4f e2 3d f8 72 af bd d2 85 9b 3d
       -0.14428027 0.11050402 -0.085668504 0.075938836
0003e0 73 8d 0c be 9b be 1a be c0 dd 15 be 7b ed ae bd
       -0.13725834 -0.15111773 -0.14635372 -0.085413896
0003f0 55 70 e7 bd 1c 2d 18 be 3e 84 90 3d 90 93 ec bc
       -0.113007225 -0.14860958 0.07056473 -0.028878957

layers.2.bias f4 [128]
000000 b3 fc c9 bd a3 e2 ec 3b d6 ce 88 bd 90 61 57 be
       -0.09862652 0.0072291656 -0.06680076 -0.21033311
000010 77 67 41 bd 2c 0e 5f be 8f 83 06 3d b1 6b f6 bd
       -0.047217812 -0.2178275 0.032840308 -0.12032259
000020 bd a1 53 bd dc 7c 29 3e 28 66 81 be f8 2c df 3d
       -0.051667918 0.16551536 -0.25273252 0.10897249
000030 5b c6 26 3e f8 6e a9 3c 68 2d f2 3d b0 43 5b be
       0.16286604 0.020682797 0.11825067 -0.2141254
000040 aa a7 93 3c 72 b3 22 be ed 08 38 bc 17 29 83 bc
       0.018024284 -0.15888765 -0.011232597 -0.016010804
000050 2e 28 f4 bc df 75 85 3d 16 80 19 be 28 41 c4 3d
       -0.029804315 0.06516623 -0.14990267 0.0958274
000060 68 81 56 3e 1c 10 34 3d 1e d3 d8 3d 08 cf 96 3d
       0.20947802 0.043960676 0.105871424 0.07363707
000070 e8 61 3a be 01 0d c5 3d c8 71 04 3e 5a f7 2f be
       -0.18201411 0.09621621 0.12934029 -0.17184201
000080 3c 14 c0 3d c2 e8 a1 bd 87 47 97 bd df 92 12 be
       0.093788594 -0.07905723 -0.0738669 -0.1431384
000090 1c db 2b 3e 2b a6 4d 3e b5 bd 1f be b4 5e 1d be
       0.16782802 0.2008292 -0.15599711 -0.15368158
0000a0 b7 7b 86 3c 91 d6 a0 3d 8a 03 0a be 37 f0 d7 3d
       0.016416414 0.07853425 -0.13477913 0.10543864
0000b0 e4 f0 16 be 5c bd 35 3e e6 e2 11 be c9 b3 1b 3d
       -0.1474033 0.17748016 -0.14246711 0.038013253
0000c0 cc f5 3b 3e 70 c7 21 bd 80 0e 31 be cc 3a 10 be
       0.18355483 -0.03949684 -0.17290688 -0.14084929
0000d0 95 89 d1 3c 9a 40 25 be 4c 3f ba bd c4 66 ad 3d
       0.0255783 -0.16137925 -0.09094104 0.084668666
0000e0 46 0a c8 bd b4 fc 3b 3c 7d b8 58 be 88 90 3b 3d
       -0.097675845 0.011473823 -0.21164127 0.045792133
0000f0 52 2d 4d be 4c cf bf bd e9 0e 20 be 1b a2 af bd
       -0.2003682 -0.093657106 -0.15630688 -0.08575841
000100 6a 36 36 3e 79 74 9e bd 50 5f 07 be 07 b0 55 3d
       0.17794195 -0.07737059 -0.13219953 0.052169826
000110 ea 03 ba 3c 01 ed 2f bd 9d c6 13 3e dd b0 3f 3e
       0.022706944 -0.042950634 0.14431234 0.18719812
000120 e2 53 68 3e 82 96 f2 bd 25 9b 13 bd 9b 9b c2 3c
       0.22688249 -0.11845113 -0.03603663 0.02375584
000130 69 66 6c bd 8c ae fa 3d a5 67 ed bd 46 52 c3 bc
       -0.057714853 0.122403234 -0.11592034 -0.023842942
000140 d7 74 a8 3b 19 ed b9 bd 86 cc ac 3d 69 74 0c 3d
       0.0051408815 -0.09078426 0.08437447 0.034290705
000150 d0 c8 6d 3d 9c ad c1 3d 12 04 ef 3d 9f ab 4d 3e
       0.058052838 0.094569415 0.11670698 0.20085
000160 dc d2 b5 3d f1 94 a3 3d 47 f6 3a 3e 1a fc 71 bd
       0.08878109 0.07987393 0.1825801 -0.059078313
000170 53 49 36 3e ba a5 b4 bd 4b 23 01 3e f9 fc 50 be
       0.17801408 -0.08820672 0.1261112 -0.20409001
000180 ea f5 d6 3c de df 04 be 3b 2d 8f bd db 91 58 3d
       0.026240308 -0.12976024 -0.06991049 0.052873474
000190 b2 9f b1 bc 30 f4 b4 bd 9b a6 7d bd 2b 60 4f 3c
       -0.021682594 -0.088356376 -0.061926465 0.012657206
0001a0 5c 1a 10 be aa 5c 3c 3d d6 ad fd bd 8d 49 f3 3d
       -0.14072555 0.04598681 -0.12386672 0.11879263
0001b0 42 15 08 bd 07 b2 04 3e 7b c2 9e bd a9 0a 36 be
       -0.033223398 0.12958537 -0.07751938 -0.17777504
0001c0 90 9a c7 bd eb 15 af bd 48 db 1d be 51 f4 8c bc
       -0.09746277 -0.085491024 -0.1541568 -0.017206343
0001d0 92 44 e8 3d eb ba 34 3d 1d b9 de bd ee 5d 62 3d
       0.11341204 0.04412357 -0.10875151 0.05526536
0001e0 65 c2 04 3e 76 e1 fa bd 83 e1 2a 3e 4d 61 13 3e
       0.1296478 -0.122500345 0.16687588 0.14392586
0001f0 33 18 08 be 82 b1 1d 3b 42 ed 00 be 9d 6e 10 be
       -0.13290481 0.0024062102 -0.12590507 -0.14104696

layers.4.weight f4 [512, 128]
000000 00 7c e3 b8 30 e6 5b bc b4 23 51 bd 1e 34 8e 3c
       -0.000108473 -0.01342158 -0.05105944 0.017358836
000010 10 c1 a5 3c ad 55 91 bd 4a c1 f4 bc 3a b2 2c bd
       0.020233661 -0.070964195 -0.029877324 -0.042162158
000020 0b 35 bf 3c 64 00 1b bd 62 d5 67 bd 9c 71 2b bd
       0.023340723 -0.03784217 -0.056599982 -0.041856393
000030 05 fd fa bc 32 9b 8e 3c b7 5c 48 3c a1 6d 78 bd
       -0.030638227 0.017407987 0.012229136 -0.060651425
000040 29 6a df bc ec 01 bc 3c 12 36 0e be 04 eb 6b bd
       -0.0272723 0.022950135 -0.13887814 -0.057597175
000050 af da 5d 3d c2 4a fc bb 8b fe 5f be 5d 47 8a 3c
       0.05416363 -0.0076993415 -0.21874444 0.016879732
000060 03 a9 cf bd 61 22 07 bc 5f 06 c3 bd b0 70 0e 3d
       -0.10139658 -0.008247943 -0.095226996 0.034775436
000070 3e 46 47 bc c1 e4 8c 3d 6f 17 34 bd cf 6d 84 3d
       -0.012162743 0.06879569 -0.04396766 0.06466257
000080 0f 9f 7b 3d 6f 92 0d bd 76 b1 a0 bd a1 e1 54 3d
       0.061430987 -0.034563478 -0.07846348 0.05197299
000090 94 3d 72 3c 06 d6 77 bc 06 70 0e 3c 1f 78 e5 bb
       0.014785189 -0.015126711 0.008693701 -0.007002845
0000a0 0b a4 8f bd e8 76 d8 bd d9 d4 1d be ca 4a 67 bc
       -0.070137106 -0.105695546 -0.15413226 -0.014116952
0000b0 68 bd a2 bc 5b 37 82 3d 21 05 40 bc f9 d2 65 3d
       -0.019865707 0.063582145 -0.011719973 0.056109402
0000c0 df 1a 95 3c 6f 80 33 be 33 5c 30 bd 31 07 ad 3d
       0.01820129 -0.17529462 -0.043056678 0.08448637
0000d0 93 74 91 bc b8 d0 19 be 35 bb fa 3c 52 34 88 bb
       -0.017755782 -0.15021026 0.030606845 -0.0041566277
0000e0 bc 7b f0 3d 25 c3 69 bc 43 72 18 3d 4d 70 cf 3c
       0.117423505 -0.0142677175 0.037218343 0.025322104
0000f0 2a c5 0c 3e ef 73 bb bd 26 ee 5d 3d c6 e1 83 3d
       0.13747087 -0.09152972 0.054182194 0.06439547
000100 e6 32 f8 bd bf 14 8b 3d cc 33 ec bd 49 64 8e bb
       -0.12119083 0.067910664 -0.11533317 -0.004345451
000110 ae ed cf bd b0 52 02 bd 6e 88 c2 3c 27 93 62 bc
       -0.10152756 -0.03181714 0.023746695 -0.013829029
000120 2e bd 2e bd 2d 07 e5 3b 14 e8 79 3d c2 64 a0 bd
       -0.042660885 0.006989381 0.061012343 -0.07831718
000130 cb 7a 38 be ae 33 2c bd 5f d1 58 3b 11 0f 4c 3d
       -0.18015592 -0.042041473 0.003308378 0.049819056
000140 af a3 37 be 4f 4b 8b bc 20 c2 5f 3d 17 e4 ef bd
       -0.17933534 -0.017003683 0.05462849 -0.117134266
000150 2e 9f 88 3d a6 9b 0a 3d 6f f1 da bc 80 b7 0a bd
       0.06670986 0.033839844 -0.026726453 -0.033866405
000160 6f 76 92 bc ef 96 fd 3c dd 11 c2 bd f5 92 62 3d
       -0.01787874 0.03095576 -0.094760634 0.05531593
000170 1f 30 e6 39 c3 31 07 be af a9 34 3d 2f 06 98 3b
       0.00043904872 -0.13202576 0.044107135 0.004639409
000180 65 c5 4e bc 81 96 e9 3c 5c 9a aa bc 5d de 85 bd
       -0.012620305 0.028514149 -0.020825557 -0.06536553
000190 a8 08 64 3d 32 aa 9c bb 85 28 d6 bd 4a 6f 20 bc
       0.055672318 -0.004781031 -0.10456947 -0.009792158
0001a0 83 8a b0 3b 8e ec f1 bd 8a d8 a1 3d c8 30 e7 bd
       0.0053876056 -0.11812697 0.0790263 -0.11288601
0001b0 d6 7b 16 bd 15 53 48 3d 40 4a 9f 3c e8 ca e1 3c
       -0.036739193 0.04890736 0.019444585 0.027562574
0001c0 3d 65 bf 3c af e7 4d bd 25 74 8a bd 12 b5 5d bc
       0.023363704 -0.05026978 -0.06760434 -0.01353194
0001d0 c9 36 4e bd 3a cf 6e 3d e7 5a 96 3d 9f 8b a1 3c
       -0.050345216 0.058303095 0.07341557 0.019719897
0001e0 a7 e3 35 3e ed 04 a3 3d 3e 5a 0a bd 3d 9a 1e be
       0.17762624 0.07959924 -0.033777468 -0.15488525
0001f0 6d 33 03 bd 5a 66 8e bd ff fb 1d be b3 a5 8b bd
       -0.032031465 -0.06953116 -0.1542816 -0.06818714
000200 d5 56 cf bd eb 03 b9 bc 0b 7e 8b bd 6e 06 25 bc
       -0.10123984 -0.022584876 -0.0681115 -0.010072334
000210 1a 9f eb bb 3a 22 64 bd ac 20 a2 bc bb e9 ae bd
       -0.0071905972 -0.055696703 -0.01979097 -0.08540674
000220 d6 d2 86 3d 32 3d 18 3d c6 6d cb bc 70 a6 c3 bd
       0.065831825 0.037167735 -0.024832617 -0.0955323
000230 b3 41 8a bd 5e 3d 19 bd ae 5a a4 3c c8 96 ed bc
       -0.067508124 -0.03741204 0.02006277 -0.029002562
000240 29 18 15 bd e6 5d cd 3d be 0a 94 3d 6e c0 b2 3c
       -0.036399994 0.10027675 0.072286114 0.021820273
000250 34 e4 40 bc 28 ac 91 bd 24 fd cb bc 80 ca a8 bd
       -0.011773158 -0.07112914 -0.02490098 -0.08241749
000260 ad d3 10 bd 47 54 1f bd 0e 3f a2 3b 58 ab c9 bd
       -0.03535812 -0.038898733 0.0049513644 -0.09847134
000270 22 ce 2a bd 6d f1 2d bd 06 0e 47 bc f8 01 8a bd
       -0.04170049 -0.04246657 -0.01214934 -0.06738657
000280 57 71 19 bd 9f 71 52 bd 22 13 1e bd d2 ff 20 ba
       -0.037461605 -0.05137789 -0.038592465 -0.0006141636
000290 0a 13 f7 bc 68 aa 90 bc a0 bd 8e 3b 27 8b 66 3d
       -0.030160446 -0.017659381 0.004356101 0.05628505
0002a0 64 9d 94 3b 9d b3 cf bd e4 c5 8c bd fd 63 3d bd
       0.004535364 -0.101416804 -0.06873682 -0.046237934
0002b0 a2 50 63 bd 11 ee b3 bd 98 55 4a 3c c8 3b c8 bd
       -0.05549682 -0.08785642 0.012349509 -0.09777027
0002c0 38 fd 9c 3d 82 45 9a bd a3 01 4f bc c9 00 ea 3c
       0.07665485 -0.07532789 -0.012634668 0.028564828
0002d0 a8 7b 7c bd 46 0d 95 3d 50 d8 f4 bb 0a 34 9e 3c
       -0.061641365 0.07277922 -0.0074720755 0.019311924
0002e0 f5 ff 84 3d 2e f2 20 bc d2 c7 29 bd ee bf 69 3d
       0.064941324 -0.009823365 -0.04145033 0.057067804
0002f0 b8 4d 99 bd 01 14 2a 3b 3f 98 2f bd 2d d6 e5 3b
       -0.07485527 0.0025951865 -0.042869803 0.007014057
000300 55 d3 42 bd cf 77 1e bd 7d 92 a7 bd 14 cb 75 bd
       -0.047564823 -0.038688477 -0.08182237 -0.060008124
000310 ff 8d c8 bd 6b 7c 24 bd ba fe 69 ba fc ad fe bc
       -0.097927086 -0.040157717 -0.0008926202 -0.031088822
000320 ce 84 40 3d 98 49 cb 3c db 91 80 3d 88 04 7e 3c
       0.047001652 0.024815366 0.0627782 0.01550401
000330 d8 ec 25 bd b2 61 33 bc 0d 43 20 3d 7c e7 f9 3c
       -0.040509075 -0.010948585 0.039126445 0.030505888
000340 5c 84 3d bd be 42 8b bd 38 76 6c bc da a6 4e bd
       -0.046268806 -0.067998394 -0.014432482 -0.05045209
000350 7b 9d 86 3d a2 ce 85 3c fb 93 89 bd bd 0d 25 bd
       0.06573006 0.016333882 -0.06717678 -0.040296305
000360 59 be 03 3d e6 57 8a 3d 3a c3 9f bc 4b f2 a9 3d
       0.03216395 0.067550465 -0.019502271 0.08298167
000370 12 67 db bd 66 6e 29 3c 45 b8 09 bb 0a c7 8f 3d
       -0.107130185 0.010341262 -0.0021014374 0.070203856
000380 2f bb 9a bd 52 5d 92 bd 66 77 81 bb e2 b0 c4 bc
       -0.07555234 -0.07146706 -0.003951001 -0.024010126
000390 bb ae 4d 3d 59 de 57 bd 2c 72 64 bd a6 d2 81 ba
       0.050215464 -0.05270228 -0.055772945 -0.0009904697
0003a0 39 e4 a5 bd 96 d7 e3 3c e5 ca 82 3d 20 4e b1 3b
       -0.08100171 0.02781276 0.06386355 0.0054109246
0003b0 8f 15 94 3c 3a 66 18 bd c6 58 ef 3c f0 12 37 bc
       0.018076686 -0.037206866 0.029217135 -0.011173949
0003c0 b0 d2 97 3d bf 24 04 bd a5 cf e2 bd 65 99 b5 bd
       0.07413232 -0.032261606 -0.11074761 -0.08867148
0003d0 e8 21 7b bd 71 bd b1 bb ba dd 42 3d e5 83 96 bd
       -0.061311632 -0.0054241945 0.047574736 -0.07349376
0003e0 05 77 ab 3d ac 17 a2 bd b2 72 cb bb b1 7e 40 bd
       0.083723105 -0.07914671 -0.006208741 -0.046995822
0003f0 bf 1c 17 bc 02 8d fd bc a5 ea 26 3d f8 dc 8f bd
       -0.009223162 -0.030951027 0.04075112 -0.07024568

layers.4.bias f4 [512]
000000 4c 18 3e 3c 36 81 ba 3c 8d 06 00 3c e8 e8 42 3b
       0.0116024725 0.02276669 0.007814062 0.0029740874
000010 57 ba 89 3b 72 c4 cd 3d 85 88 e2 bc 80 fa bc bd
       0.0042031216 0.100472346 -0.027652988 -0.092274666
000020 49 30 db bd 1f ff 64 3d 88 8b fa 3c af 43 ef 3c
       -0.10702569 0.055907365 0.030584112 0.029207079
000030 55 64 39 3d 79 f3 b6 3d 7e 59 a9 3c 73 66 be 3d
       0.0452617 0.089331575 0.020672556 0.092968844
000040 3b c5 8c bd 04 9c 47 3d 13 6d 62 bd 38 3d d9 bd
       -0.06873556 0.048732772 -0.055279803 -0.1060738
000050 4e 90 19 3a f9 04 84 bd 2b e0 42 3d da f7 1a 3d
       0.000585799 -0.06446261 0.047577064 0.037834026
000060 87 7d 5c bd d0 4b 03 3c bd 99 a7 bd 21 7f 61 bd
       -0.05383065 0.008013681 -0.0818362 -0.05505288
000070 25 5c 6d 3b ab 18 59 bd 50 fd bc bc dc 27 a0 3d
       0.0036218252 -0.05300204 -0.023070008 0.078201026
000080 b1 d6 aa 3d e1 21 d4 3c 88 75 b8 bc 2e a3 24 be
       0.083417304 0.025895061 -0.02251698 -0.16077873
000090 d2 d3 bc bd bb e4 cc 3d de 39 08 bc cb 8d 98 3d
       -0.09220089 0.100045644 -0.008314578 0.0744892
0000a0 28 c2 54 bd 4c 1d 04 3d 2e 44 cf 3d 8f e7 c0 3d
       -0.051942974 0.032254502 0.10120426 0.09419166
0000b0 25 a1 e8 bd c2 66 47 3c 16 b8 aa 3d 7c 33 a3 bd
       -0.11358861 0.012170495 0.08335893 -0.07968804
0000c0 1e fb a3 3c 49 64 8f 3d a3 1b 83 bd d8 12 86 3c
       0.020017203 0.0700155 -0.06401756 0.016366407
0000d0 8e fd 95 3b e7 4c 1c 3d cb 60 74 bd 6f 8b a0 bc
       0.004577345 0.038159277 -0.05966262 -0.019597737
0000e0 52 92 7d b8 62 23 29 3d 3f b3 64 3d 7f 4f 28 3d
       -6.0456172e-05 0.04129351 0.055835005 0.04109144
0000f0 55 7f 38 bd 63 6b 5a 3d b7 e0 37 3d 34 4f 1d bd
       -0.04504331 0.05332507 0.04489204 -0.038405612
000100 34 d8 2c 3d c9 1f cc 3d 5c 39 93 bd 97 91 ee 3b
       0.042198375 0.09967 -0.07188675 0.0072805393
000110 64 20 a0 bd 2b 58 f5 bc 0a de 03 3d 68 7a 5b bb
       -0.07818678 -0.029949268 0.032194175 -0.0033489708
000120 6d a2 45 3d 7d e3 25 bd 3b cf da 3d 95 a8 88 3d
       0.048250604 -0.040500153 0.10684057 0.066727795
000130 8a f5 a1 3d 0d 36 1c 3d 89 12 a4 3d 5d 4e 38 bd
       0.07908161 0.038137484 0.08011348 -0.044996608
000140 a2 66 6b bd 72 88 4e bd a6 45 6c 3c 76 62 98 3d
       -0.057470925 -0.050423093 0.014420902 0.07440655
000150 0d 3c 22 bd 43 af 03 3c 08 2c ed bd 81 e9 fa bc
       -0.03960805 0.008037391 -0.11580664 -0.030628921
000160 e4 64 1a bd 23 27 a8 bd 46 2a df 3d 7c 2f 0e bd
       -0.037693873 -0.0821059 0.10896735 -0.034713253
000170 82 ae d0 ba 79 46 84 3d e7 a7 20 3b b7 c0 aa 3d
       -0.0015921148 0.06458754 0.002451414 0.08337539
000180 c3 e8 37 bd eb 1c 79 bc 41 f5 09 3d 6a 16 f7 bc
       -0.044899713 -0.0152046485 0.033681158 -0.030162055
000190 36 2f 53 bd 18 5d bc bc e6 3e 0b bd a8 69 9f bc
       -0.051558696 -0.02299361 -0.03399553 -0.01945956
0001a0 d1 ba 52 bd eb 5e ca 3d a9 2b c0 bc 46 cf 0f bd
       -0.051447693 0.098813854 -0.023458319 -0.03510978
0001b0 18 cc f4 3c f5 3a f9 bc bc ac a6 3c 69 91 1e bd
       0.029882476 -0.03042362 0.020346038 -0.038712893
0001c0 ad f1 9d bd ad 46 f0 bc 98 cf 9e bd 8d 8e 64 3d
       -0.077121116 -0.029330576 -0.07754439 0.05580001
0001d0 1f 3d 40 bd 47 a0 9d bd 71 4b 4d bd ce 06 3a 3d
       -0.04693329 -0.07696586 -0.050120775 0.045416646
0001e0 ae 62 9f 3d ef e9 9b 3c 37 08 07 3e 8a a2 7e 3d
       0.077824935 0.019032447 0.13186727 0.062166728
0001f0 9d 4f 39 bd 11 91 9f bd 27 c0 1d bc fd 82 bf bc
       -0.04524194 -0.07791341 -0.009628332 -0.02337789
000200 f5 94 f4 bc a1 b9 72 bc 05 bd af bb eb c1 0f bd
       -0.029856184 -0.014814765 -0.005363109 -0.035097044
000210 14 b7 01 bc cd 35 8d 3d b2 95 83 3d 02 f7 ad bd
       -0.007917184 0.06895027 0.064250365 -0.084943786
000220 c4 78 c4 bc f5 c0 84 3d 70 35 87 3d ad 4c 41 3c
       -0.023983367 0.06482116 0.06601989 0.011798066
000230 5a e6 4f 3a d3 40 9a 3d 7e 51 a4 3c 8a 05 58 bd
       0.00079307484 0.075318955 0.02005839 -0.052739657
000240 1d 29 06 bd c3 40 a3 bc 0d fb 12 3d aa 38 49 3b
       -0.032754052 -0.019928342 0.035883952 0.003070394
000250 0f 0f 30 bc 96 85 aa 3d 75 6f 83 bd 17 68 c5 3d
       -0.010745778 0.08326261 -0.06417743 0.09638994
000260 08 49 ca 3c ef a7 45 3d b3 a5 ff 3b 3f df d3 bc
       0.024693027 0.048255857 0.0078017353 -0.025863288
000270 84 06 90 3d 49 79 bd 3b fc 7f 99 bc f0 ca fa bc
       0.07032493 0.0057822806 -0.018737786 -0.030614346
000280 65 3e e1 3d ae 98 ee bc e0 00 ab bd 0d db 6e 3d
       0.10998229 -0.029125538 -0.08349776 0.05831437
000290 cf d1 c1 3c 99 58 dd bd 65 01 82 bd 10 a3 17 bd
       0.023659615 -0.10807914 -0.06347922 -0.037020743
0002a0 a9 1d bf 3c 3d 39 2d 3c cc 27 ef bc 09 1a 8a 3d
       0.023329573 0.010572729 -0.029193781 0.06743247
0002b0 3b d2 19 3d 5b 14 ab bd ee 42 4f bd 8b d4 87 bd
       0.037554007 -0.08353492 -0.05060094 -0.06632336
0002c0 3d 46 09 be 45 03 f3 bd e9 9a 91 3c a9 94 ba 3d
       -0.134057 -0.11865858 0.017774062 0.09110386
0002d0 cd 0c 90 bd f9 dd a8 bd 2c b9 23 3d 38 a5 5c 3d
       -0.070336916 -0.08245463 0.039971516 0.053868502
0002e0 32 d6 52 bd 70 a6 38 bd 34 5c 08 3d c2 12 2f bd
       -0.051473804 -0.045080602 0.033291057 -0.0427425
0002f0 bf 6e db 3c 6b f6 27 bc 96 e3 ff bc ae b0 c3 3d
       0.026786206 -0.010251622 -0.031236451 0.09555183
000300 42 3c 77 bd 5f 0e 1a ba de c5 5f 3d 67 cc c2 bd
       -0.0603602 -0.0005876775 0.05463206 -0.09511643
000310 6c 16 54 3c fb 4a 02 bc 87 62 db 3d 80 8c f0 ba
       0.012944799 -0.007952447 0.10712152 -0.0018352419
000320 ca be ce bd 45 97 26 3d d0 e5 71 bc da 9b af 3d
       -0.10094984 0.040671606 -0.014764264 0.08574648
000330 a3 75 25 bd 2a 27 ff bc 43 38 3e 3d 96 08 52 bd
       -0.04039539 -0.031146605 0.046440374 -0.05127772
000340 e3 fe a1 3d 9d 71 0f bd 14 34 c6 bd a4 38 f9 bc
       0.07909944 -0.03502046 -0.09677902 -0.030422516
000350 bf d5 27 bd 38 bb 96 bc e6 78 df 3c 85 eb c7 bb
       -0.04097533 -0.01839982 0.027279329 -0.006101074
000360 ea fa 6b 3d 70 b8 f1 3c 8a 9c c8 3d c6 ba e1 bc
       0.057612337 0.029506892 0.097954825 -0.02755488
000370 86 a9 a0 bc 37 46 3c bd e7 ce 1d 3d 56 40 1b 3a
       -0.019612085 -0.0459654 0.038527396 0.00059223676
000380 4f 0c 75 3d cd e3 ff 3c 47 bf 9e 3d 42 4d de bc
       0.05982619 0.031236554 0.07751327 -0.027136449
000390 57 1e ef 3d 66 e3 53 bd d3 e3 96 3d 41 f6 08 b9
       0.11675709 -0.051730536 0.07367673 -0.00013061707
0003a0 eb 29 d5 3b 3d 2f 0a bd ca ff aa 3d b9 8a f0 3d
       0.006505241 -0.033736456 0.08349569 0.11745209
0003b0 f0 4f 72 bd ba 2e dc 3d ae 96 6a bb 4b dd a6 3d
       -0.059158266 0.107511 -0.0035795378 0.08147677
0003c0 d3 8d 3d bd e7 e7 04 3d bb 88 76 bc 6a 73 17 bd
       -0.046277832 0.03244772 -0.0150472475 -0.0369753
0003d0 55 b9 b7 3d 85 9f 06 bd 72 09 06 bd cd 50 80 3d
       0.08970896 -0.032866973 -0.03272385 0.062654115
0003e0 9a f5 61 bc 6e 36 25 bd e1 49 1d bd 1b bc af 3c
       -0.013791466 -0.04033511 -0.038400535 0.021452
0003f0 01 81 69 3d db 5e b6 3d 0f 6b da bd 89 f7 5f 3c
       0.057007793 0.08904811 -0.10664951 0.013669857

layers.6.weight f4 [128, 512]
000000 dc c1 49 bd a6 4c c3 3c 1b da 05 bd 12 38 ad 3c
       -0.049257144 0.02384026 -0.032678705 0.0211449
000010 f4 5b 94 3c f0 d2 38 bd 03 81 16 3c 01 3b ff 3c
       0.018110253 -0.04512304 0.009186032 0.031156065
000020 87 62 24 3d 9b 40 ed bc a5 dc 95 bc 02 be fb 3c
       0.040133025 -0.02896147 -0.018293688 0.030730251
000030 4a 30 c8 bb d9 67 75 bd ed f4 e3 3c 74 60 10 3c
       -0.006109272 -0.05991349 0.02782675 0.008812059
000040 4e cb 37 bd 8a 2d 36 bd 5d e8 31 3c 80 92 29 bb
       -0.04487162 -0.044477023 0.010858622 -0.0025874674
000050 e6 88 4c 3c 3c 96 63 bc c1 4e b4 3c ed 7c c5 bc
       0.012483811 -0.013890799 0.022010209 -0.02410742
000060 32 d2 21 3c 2b 1c 0e bc fa b9 a0 bc 6f 43 f5 bc
       0.009876775 -0.008673708 -0.01961993 -0.029939381
000070 98 18 b2 3c e0 5e f1 bc c0 f2 35 bd e4 92 53 bd
       0.021740243 -0.029464185 -0.044420958 -0.051653758
000080 62 d3 42 bd 2a 3e d0 3a 78 1e a8 3c a8 25 2e bd
       -0.04756487 0.0015887667 0.020522341 -0.04251638
000090 87 e1 ba bc 5c 06 44 3a bb 9e 07 3d 27 34 1c 3d
       -0.022812618 0.0007477754 0.03311036 0.038135674
0000a0 0e 66 0b bd 19 b9 c3 3c 10 5d 3b bd 49 1d e6 bb
       -0.034032874 0.023891972 -0.04574305 -0.007022534
0000b0 19 71 07 bd 06 b5 38 bd cb d9 80 bc 3d a2 32 bb
       -0.033066843 -0.045094512 -0.015728852 -0.0027257346
0000c0 da 3e 6d bc 97 01 10 bd df 8b bc 3c 96 da 42 ba
       -0.014480317 -0.035157766 0.023015914 -0.00074330845
0000d0 c4 1a eb 3c 73 69 85 bb a2 6d 3d bd c6 25 67 3c
       0.028699286 -0.0040714084 -0.046247132 0.014108127
0000e0 d9 b3 6b 3c 63 8f 3c bc fe d0 34 bd ba 77 3a bd
       0.014386141 -0.011508795 -0.044144623 -0.045524336
0000f0 e2 2f 3f bd f7 b4 ae bc 13 55 05 3d 53 1d 77 bd
       -0.046676524 -0.021326525 0.032551836 -0.0603307
000100 32 83 ef bb c5 c6 c0 3c 34 be 29 bd 71 1f 41 bd
       -0.007309341 0.02353228 -0.041441157 -0.047149125
000110 c8 28 2a bd 5e 18 b4 3c 9d 42 61 bd e0 85 69 bc
       -0.0415428 0.021984275 -0.054995168 -0.01425311
000120 3b d1 6c bd ed 7e e4 bc d9 c0 87 3c 5d ae 84 bc
       -0.057816725 -0.027892554 0.01657145 -0.016196424
000130 a6 18 52 bd df cb d6 bc 0a bf 14 bd 5f e7 85 bc
       -0.051293038 -0.02622026 -0.036315 -0.016345678
000140 6d b0 d1 3c 9f 11 9e bc 27 81 9b 3c e0 f4 2c bb
       0.025596822 -0.019295512 0.018982483 -0.0026391074
000150 0a 4f aa bc 61 87 20 bd c7 0b 2d bb 7c e2 3a bd
       -0.020789642 -0.039191607 -0.0026404725 -0.04562615
000160 01 eb 56 bd 31 e0 df 3c 85 e0 a4 3c 14 bf 17 bc
       -0.05247021 0.027328582 0.02012659 -0.009261865
000170 4e 4f 44 bd e7 82 37 bc 0e f9 c5 3c 5d 63 9d bc
       -0.047927193 -0.011200643 0.02416661 -0.01921242
000180 60 f4 aa ba 59 93 ba 3a 39 cd 89 3b c5 78 e7 bb
       -0.00130428 0.0014234587 0.0042053727 -0.0070639574
000190 fb ee 1a 3d 86 db 4d bd 2b 2d 12 bd 6c 82 4b bc
       0.037825566 -0.050258182 -0.035687607 -0.012421232
0001a0 8f 17 e9 3c ce ff 5d bc 13 03 27 3d de f7 09 bc
       0.028453616 -0.013549758 0.040774416 -0.008420913
0001b0 69 5c 4b bd 9d 5a ad bc 81 fa b2 3c c9 f6 f3 bc
       -0.049648676 -0.021161372 0.021847965 -0.029780762
0001c0 ae cf 24 bd e4 e9 cc 3c 57 a6 2a 3d fe 0a 13 3d
       -0.04023712 0.025013871 0.04166254 0.035899155
0001d0 27 c6 72 bc be 1b 27 bd 49 ee 32 bc 26 c9 17 bc
       -0.014817751 -0.04079794 -0.010921069 -0.009264266
0001e0 54 7e 9d bc 14 e4 b9 3c d4 13 46 bd 8f 35 1d 3b
       -0.019225277 0.022691764 -0.048358753 0.0023988222
0001f0 30 7c 78 3c fe 8d 17 bd a0 06 f4 bb 68 6a 7a 3c
       0.015166327 -0.03700065 -0.007447079 0.015284158
000200 1a f5 1b bd da f7 ce bc 42 89 11 bd dc fb 03 3d
       -0.038075544 -0.02526467 -0.03553129 0.032222614
000210 77 56 78 3c b2 d3 f1 bc 35 e8 09 bd d1 dc ce 3c
       0.015157334 -0.02951989 -0.033668716 0.025251778
000220 a5 81 07 3d f0 8c 33 bd d1 e0 16 bb cb 55 2f 3c
       0.033082623 -0.04383558 -0.0023022185 0.010701607
000230 65 26 3e bd 93 6e 9b 3c 06 33 46 bc 32 be 0b 3d
       -0.046423335 0.018973624 -0.012097126 0.03411693
000240 07 57 6c bc d1 d4 08 bd 2f 47 b1 b9 7e a0 d3 3a
       -0.014425046 -0.033406083 -0.00033813107 0.0016145853
000250 a1 1d 1d 3d b5 74 79 bc 8a da e0 3c fe ef 69 bd
       0.038358334 -0.015225579 0.027447958 -0.05711364
000260 6f 94 97 3c 66 ce 64 bd c4 53 d2 3c 5b 72 d0 3b
       0.018503396 -0.0558609 0.025674708 0.0063612885
000270 bd ce b3 bb 8b c8 a2 3c 0e e4 00 bd 68 10 b5 bb
       -0.0054872916 0.019871017 -0.03146749 -0.0055256374
000280 f8 11 1a bd 59 82 26 3d d5 f6 ba 3a 2d 8f 09 3c
       -0.037614793 0.040651653 0.0014264236 0.008395952
000290 e2 16 33 bd ee 3c ec bc 20 38 9a bc c6 af 10 3d
       -0.043722995 -0.028837647 -0.01882559 0.03532388
0002a0 83 82 20 bc 94 ff a3 bb 61 6a 92 3c 95 e3 6f bd
       -0.009796741 -0.0050048325 0.017872991 -0.05856665
0002b0 23 a5 be 3c 86 89 d3 3b 58 d0 3b 3c 7e 7b 9e bb
       0.023272103 0.006455603 0.011463247 -0.0048364988
0002c0 64 ec 05 3d 38 5e 32 bd 55 80 5a 3c f2 40 c5 3c
       0.032696143 -0.043546885 0.013336261 0.02407882
0002d0 21 00 d7 bc 17 bc 2a bd 2c ea 87 bc c5 76 93 3c
       -0.026245179 -0.041683283 -0.016591154 0.01800097
0002e0 df 02 a8 bc c4 0e b8 bc 0c 34 f3 bc 1a 36 98 3c
       -0.020509182 -0.022467978 -0.029687904 0.018580485
0002f0 77 fe e9 bc 19 86 1c 3d 6e 29 dd 3c 8c bc 28 bb
       -0.028563721 0.038213823 0.026997294 -0.0025747148
000300 df 49 03 3d c6 90 07 3c ac ef 79 bd 75 ac b9 3c
       0.03205287 0.008274263 -0.061019585 0.022665242
000310 72 bf 8c 3c fa 53 d4 bb 11 33 31 bd 2e 59 22 bd
       0.017181132 -0.0064797373 -0.04326159 -0.03963583
000320 6c 01 37 3c c5 5c 82 bc c1 f2 0e bd 18 a7 0d 3d
       0.011169773 -0.015913377 -0.034899477 0.03458318
000330 4b 53 00 3d aa 2f b2 3c 80 a3 e0 bc 56 c8 31 bd
       0.031329434 0.021751244 -0.027421713 -0.043403946
000340 4b ec 1b 3d 2d 5e 01 3d f9 64 a7 bc 48 09 ff 3c
       0.038067143 0.031583954 -0.02043389 0.031132355
000350 80 b4 6e bb e3 ce f0 bc f1 b8 1b bd 8f 2d a6 3b
       -0.0036423504 -0.029395526 -0.03801817 0.005071349
000360 68 b8 c2 3c 8c c0 b7 bc 9b 93 47 bc 94 d2 b9 bb
       0.023769572 -0.02243068 -0.012181188 -0.005670855
000370 89 4e 44 3c 9c c8 14 bd c4 05 f3 bc 5e 88 0e bd
       0.011981615 -0.03632413 -0.029665835 -0.03479802
000380 40 31 e6 bc 4d 16 1f bd 8f 54 a7 3c 81 75 b1 3c
       -0.028099656 -0.038839627 0.020426063 0.021662476
000390 dc 18 d2 bc dd 12 e6 bc 38 0d 0d 3c ec 59 00 bd
       -0.02564662 -0.028085167 0.008609109 -0.031335756
0003a0 e4 67 a7 3b ce 85 f5 bc 9d f1 89 bb d6 ca 77 3c
       0.0051088203 -0.02997103 -0.0042097108 0.015124043
0003b0 25 67 a3 3c 06 c8 20 bd ce 24 86 bc ac 7e 05 3c
       0.019946644 -0.039253257 -0.016374972 0.008147877
0003c0 a0 6b 82 bb 46 f3 8f 3c 77 b6 2a 3d 3c 69 d8 3c
       -0.003980115 0.017572057 0.04167792 0.026417367
0003d0 bc e4 4e 3b 6a a4 0c bd 29 fb 91 3c 92 2f b6 bc
       0.0031569442 -0.034336485 0.017819958 -0.02223948
0003e0 74 06 48 3c ee e2 ab 3b 5a cd 47 bd e8 7e 4f 3c
       0.01220857 0.005245558 -0.048779823 0.012664534
0003f0 be 46 14 bd 7a d6 d4 3c a8 9e d4 3c a1 d5 08 bc
       -0.036200278 0.025981177 0.02595456 -0.008351714

layers.6.bias f4 [128]
000000 d1 40 0a 3c e0 31 c2 3d 98 1f 0c bd dc 3b 97 bc
       0.008438305 0.09482169 -0.034209818 -0.01846116
000010 2a 94 d9 3d 57 23 d2 bc 06 f3 2c 3d 1b 4b d1 3c
       0.10623963 -0.025651617 0.042223953 0.025548508
000020 5e 2e 18 bc 81 a7 83 3d 7c ee d2 3d d4 d0 0e bd
       -0.009288399 0.06428433 0.102993935 -0.034867123
000030 42 bc 89 bc ca 1c ac bc 80 6a 1a bd f7 37 91 bc
       -0.016813401 -0.021009821 -0.037699223 -0.017726881
000040 88 5a a7 3d 83 5c d0 3d 9e 6b 21 3b 66 d5 9e 3c
       0.08171564 0.10173895 0.0024630795 0.019388866
000050 fc 54 0d bd 94 de 63 bd 10 66 63 bc 9c 80 87 bc
       -0.034504876 -0.05563219 -0.013879314 -0.016540818
000060 f1 1a 6e bd 87 7c 4e bd 15 1d cb bb 5d ed 5b 3d
       -0.058131162 -0.050411727 -0.006198535 0.053693164
000070 d6 cc 3f bd 4f ff c6 3b 23 3f 91 3d 79 cf 67 bd
       -0.046826206 0.0060729156 0.070921205 -0.056594346
000080 af fb 56 bd 32 b8 62 bd 37 0a 21 bd 3f 11 ec 3c
       -0.052486118 -0.055351444 -0.039316382 0.028816817
000090 cc 5d 85 3d 46 08 70 3d 07 54 2b bd 38 4d 09 bc
       0.06512031 0.05860164 -0.04182818 -0.008380227
0000a0 18 44 b8 bc 5f 95 d5 3d cc b6 c1 3d 00 7e 75 3d
       -0.022493407 0.10428881 0.09458694 0.059934616
0000b0 77 8f 27 bd 5e 4e 1f 3d 5e c9 cb bb 24 81 09 bd
       -0.040908303 0.038893096 -0.006219073 -0.033570424
0000c0 38 17 2a 3c 2d 30 b6 3b 15 3a 5d bd 6f e9 9c 3d
       0.010381512 0.005559942 -0.05401047 0.076617114
0000d0 d9 3d fb 3b a6 6c 36 bd 1b 63 a2 3b f4 e4 3b bd
       0.007667285 -0.04453721 0.004955662 -0.045872644
0000e0 17 05 62 3d 56 ce bc 3d ba 6a 40 bd 77 be 06 3d
       0.055180635 0.09219043 -0.046976782 0.032896485
0000f0 ee 3e a2 bc 4c ab b8 3d 4e 45 fb 3c 77 b4 bc bc
       -0.019805398 0.09017047 0.030672695 -0.023035271
000100 2f b2 aa bc a8 0d db 3c 0d b0 ce 3d 44 cc 05 3c
       -0.020836918 0.02673991 0.10092173 0.0081663765
000110 80 d7 8c bc d7 23 df 3a 5a b6 60 3d 44 f6 e6 bc
       -0.017192602 0.0017024231 0.054861404 -0.0281936
000120 27 89 2d bc 0e 6b 3d bd 4d c4 3c 3d cb 38 0d bc
       -0.010591782 -0.046244673 0.046085645 -0.0086194975
000130 21 2e 17 3c 70 33 32 bb 69 5c e6 3d c4 3c 0c bd
       0.009227307 -0.0027191304 0.112480946 -0.034237638
000140 09 09 6a 3d f1 3d ce 3d 71 f6 b2 bc 81 39 79 bd
       0.057137523 0.10070408 -0.021846028 -0.060845856
000150 ff 63 0a 3d a0 7e 9b 3a 26 b0 76 bb 6e 2a 68 bc
       0.03378677 0.0011863299 -0.0037641614 -0.014170272
000160 40 cb bd bc 74 4c 0f bd 31 a1 95 3d 47 bb 92 3d
       -0.023168206 -0.03498502 0.073061354 0.071646266
000170 ca 53 2e bd 5b 05 98 3d b3 92 e9 bc bf 8f b7 3d
       -0.042560376 0.074228965 -0.028512334 0.08962964
000180 5d 32 d8 3d 24 53 27 bd d3 fc 01 3d 22 84 c4 3d
       0.10556481 -0.040850773 0.031735253 0.09595515
000190 15 de f8 3c 4c 0e 9c 3d 54 c8 3d bd f3 d6 17 bd
       0.030379334 0.076199144 -0.046333626 -0.037070226
0001a0 48 2d c4 bc 01 83 a2 3c d2 4a f3 39 30 ef bd 3d
       -0.023947373 0.019837858 0.00046404317 0.09274137
0001b0 76 ce 38 bd 22 49 b2 3d a5 32 0d 3e 5b 25 a7 bc
       -0.04511877 0.08705355 0.1378885 -0.020403555
0001c0 d5 ed 99 3c a5 bf 16 bc b9 78 db 3d 37 c3 78 bc
       0.018790165 -0.009200965 0.107163854 -0.015183262
0001d0 ac 33 96 3d ba b5 01 3d 54 f5 bd bc fd 9d 8f 3d
       0.073340744 0.03166745 -0.02318827 0.07012556
0001e0 42 cd 34 bd e9 cf 91 3d 6c 5d 05 3c 67 10 11 bd
       -0.04414106 0.07119734 0.008139949 -0.035416033
0001f0 c6 65 16 bd 13 4a ab bc e5 80 ad 3d c8 ac d8 bc
       -0.036718152 -0.020909345 0.0847185 -0.026449576

layers.8.weight f4 [32, 128]
000000 ca 3a 64 3d cb 54 14 3d a6 b6 86 bd 75 3e 83 3c
       0.055720128 0.036213677 -0.06577806 0.016020993
000010 42 a1 57 3d e9 6a 95 bd d5 99 e3 bc 55 ad fe bc
       0.05264402 -0.07295782 -0.027783314 -0.03108851
000020 a6 55 9d bd b6 c4 86 3e b9 d2 c7 3d b3 b1 4c bd
       -0.07682352 0.26321954 0.09756989 -0.049974155
000030 c6 de 4e bc a2 87 20 3d ff 75 b9 bd 19 84 aa bd
       -0.0126263555 0.03919185 -0.09055709 -0.08325977
000040 c7 f4 1a 3d 76 ec aa 3d 13 d8 59 bb 4f b1 8c bd
       0.037831094 0.083458826 -0.0033240363 -0.068697564
000050 db e5 03 be 3f fd 81 3d 78 b1 42 bd 8e 6c 0f be
       -0.12880652 0.06347131 -0.04753253 -0.14006254
000060 0a 19 38 be 87 b1 91 3c ae f1 11 3c 82 cd d4 3d
       -0.17978302 0.017784847 0.008907719 0.1039076
000070 cf 3d e9 3c 02 70 49 be 24 6b 12 3e e1 53 52 bd
       0.028471855 -0.19671634 0.14298683 -0.051349524
000080 a0 51 9a bd ac 98 96 3d 9d 65 27 3b b8 b9 e8 3d
       -0.075351 0.073533386 0.0025542744 0.11363548
000090 a3 90 83 bd b9 e6 0c 3e a6 a8 9b 3d 76 5a 17 be
       -0.06424072 0.13759889 0.076005265 -0.14780602
0000a0 47 ca fc bc ff 3c c0 3d f8 ee 93 3e 15 33 bd 3d
       -0.030858172 0.09386634 0.28893256 0.09238259
0000b0 0b b2 9b 3d 89 32 c6 3c 25 40 cc 3d e7 92 99 bd
       0.076023184 0.024194019 0.09973172 -0.074987225
0000c0 45 e2 b0 bd 9b f7 8d 3d a7 05 b0 3d 58 e6 99 3d
       -0.086369075 0.069319926 0.08594828 0.07514638
0000d0 71 7d 9d bd b5 0a 5f bd 39 9f 7c 3d 3c 80 e6 bd
       -0.07689942 -0.05445357 0.061675284 -0.112549275
0000e0 ab cb 88 3d 30 47 a4 3d 88 19 80 3d 2b 50 06 bd
       0.066794716 0.080213904 0.0625487 -0.032791298
0000f0 98 3a 2c 3d 76 4e 92 3c 3f 1e 7b 3c 2e 08 7a 3b
       0.042048067 0.017859679 0.015327035 0.0038151848
000100 fc 15 9d bd f8 09 3a bd df d2 77 3d cb d3 0a bd
       -0.07670209 -0.045419663 0.060503837 -0.033893388
000110 c6 53 ae bd 8c e3 70 bc ed 2d a0 3c 59 0d 30 3d
       -0.08512072 -0.014702689 0.01955315 0.04298148
000120 03 72 3a bd c7 56 c6 3b 8d 7c 6b bc c6 22 0d bc
       -0.045518886 0.006052825 -0.014372957 -0.008614248
000130 eb 50 85 bd 82 29 23 be 14 59 82 3e bc a9 a7 3d
       -0.065095745 -0.15933803 0.25458586 0.08186671
000140 f8 1b 25 3d 2b c8 59 bc bf ea 3c bc 95 b6 a4 3d
       0.040309876 -0.013292353 -0.011530577 0.08042637
000150 e9 43 f2 3a 8f 01 c7 3c 75 ed 4a bd ee b9 a4 3d
       0.0018483374 0.024292735 -0.049542863 0.08043276
000160 95 ad d0 3d 73 6d 0f 3d 0d a6 8b 3d 2c 3f 91 3d
       0.10189358 0.03501649 0.06818781 0.07092127
000170 1c be 1e bd 99 a5 f2 3d f6 90 78 be c2 99 27 3b
       -0.03875552 0.118479915 -0.24274048 0.0025573825
000180 23 38 49 3e ba aa 09 3d 95 c7 7b bd a1 0a c0 3d
       0.1965032 0.033610083 -0.061469633 0.09377027
000190 22 f3 f8 bd c4 24 e3 3c 53 ba 6e bd 5c 04 c8 3c
       -0.12155749 0.027727492 -0.05828316 0.024416141
0001a0 14 e4 fc 3b 54 7a 17 3d dd 38 de bd 67 9e ac 3d
       0.0077176187 0.036981896 -0.108506896 0.0842865
0001b0 b3 b1 3b bd d6 5e 11 3e 06 aa 19 3e 8e 42 6c 3b
       -0.045823764 0.14196333 0.15006265 0.0036050412
0001c0 a7 b9 bd bd 28 e9 23 bd 63 ce 1f 3e 1c 6e 29 bd
       -0.09263926 -0.040017277 0.15606074 -0.041364774
0001d0 3a ca 25 3d eb 0a 33 3c 54 25 9b bd b3 58 86 3d
       0.04047606 0.010927896 -0.07575479 0.06559887
0001e0 0b ab c0 3d a1 04 42 3c 08 a7 de 3c 5e 9d e7 bc
       0.09407624 0.011841924 0.027179256 -0.02827328
0001f0 b3 ef 35 bd d5 a1 ae bd 69 38 79 bb de 99 8b 3c
       -0.044418048 -0.08526961 -0.0038028008 0.017041143
000200 50 2d 88 bd 99 6f e3 3d 11 2a 0b bd b4 d4 10 bd
       -0.06649268 0.1110527 -0.033975665 -0.0353591
000210 cc 40 cd bd 77 94 71 3d 21 a8 58 3d 4d 55 73 bd
       -0.10022125 0.058979478 0.052894715 -0.05940752
000220 cd 69 5b bd 8f b6 00 be 32 46 d8 3d fb 6a 69 bd
       -0.053567696 -0.1256964 0.10560264 -0.05698679
000230 71 4d 0d 3c fb 2a 55 bd ea 4c e8 3c d2 9c 04 bc
       0.0086244205 -0.052042942 0.028356988 -0.0080940295
000240 56 0a 72 3d ba c9 51 3d 94 67 d7 3b 73 36 8a 3d
       0.05909189 0.051217772 0.006573627 0.067486666
000250 2f 81 94 bc 98 2e 14 3d 9f b4 18 bc ff 82 67 3d
       -0.018128006 0.036177248 -0.009320407 0.056521412
000260 2c a2 bd 3d 85 8b 4a 3c 2a c1 81 3d bc f2 29 3e
       0.092594475 0.012362366 0.06335671 0.16596502
000270 e5 70 8b bd 2d 4d 37 3d ed a1 bf bd da 0a b9 bd
       -0.06808642 0.044751335 -0.09357057 -0.09035273
000280 65 14 09 3c 0c 72 0a 3d c0 27 a6 bd 7d 88 ab bd
       0.008366679 0.03380017 -0.081130505 -0.083756424
000290 9e 9b 52 3d 9a b6 4e be a1 d5 f5 bc 02 59 03 3d
       0.05141794 -0.20186844 -0.030009093 0.032067306
0002a0 a6 0c 67 bd 04 e5 c4 bc a8 25 de bd e3 91 9b bd
       -0.056408547 -0.024034984 -0.10847026 -0.07596185
0002b0 63 ca 93 3d 2d d7 e5 3b 7f 20 49 3c 98 ee 60 3d
       0.072163366 0.0070141763 0.012275814 0.05491504
0002c0 f8 42 4e bc ec 24 6b 3d 1c 8c 86 3d e6 be b5 3d
       -0.012589209 0.05740826 0.065696925 0.088743016
0002d0 94 68 8e bc 4e 4b 6e bd 64 ee d6 3b f7 c0 79 bd
       -0.017383851 -0.058177285 0.00655918 -0.06097504
0002e0 30 13 99 bd dd bb 82 3d 76 cf f9 3a 55 83 91 bc
       -0.07474363 0.06383488 0.001905902 -0.01776282
0002f0 e3 15 cd ba 94 23 7d bb b4 50 77 3c f7 25 5a 3d
       -0.0015646782 -0.0038625943 0.015094925 0.053258862
000300 fd cf c0 3d 22 8e 68 3d d7 47 36 bd eb 8e c6 3d
       0.094146706 0.056776173 -0.044502106 0.09695228
000310 bf 9e cd 3d e3 a6 8a 3c 8d 3a 6d bc 33 94 98 bb
       0.10040044 0.01692528 -0.014479292 -0.0046563386
000320 22 64 40 bd 72 ff fb bc 2e 4a f0 ba c1 da 30 3d
       -0.046970494 -0.030761454 -0.0018332654 0.04317737
000330 9c a0 4d 3d 3d 99 11 bd 64 dd be be a2 d8 b8 3c
       0.050201997 -0.03554653 -0.37278283 0.022564236
000340 75 37 14 be 5b cf e3 3c a5 d1 b5 3d 33 b2 cf bc
       -0.1447428 0.027808836 0.08877877 -0.025353527
000350 b4 f6 94 3d 1d cd e2 bc 72 e3 af 3c 9a 95 65 bd
       0.072736174 -0.027685696 0.021470759 -0.056050874
000360 e9 70 50 3c 66 8a 42 bd 2a b0 83 bc bb 5f 1e bd
       0.012722232 -0.04749527 -0.016075213 -0.038665514
000370 8f 0d a7 bc 85 33 73 3c 74 b7 19 3e f8 b6 7e 3d
       -0.020392207 0.014843826 0.15011388 0.06218621
000380 91 b6 fa bc 71 37 b3 3c f9 c1 5d bd 1f 8a 34 bc
       -0.030604633 0.021877022 -0.054140065 -0.011019259
000390 29 3e d2 3a 3e e0 70 3d 88 32 9f bd 78 e6 8c bd
       0.0016040254 0.058807604 -0.0777331 -0.06879896
0003a0 7e 56 9c 3d 4c 00 4d bd b1 ac b5 3d b3 86 05 bd
       0.076336846 -0.05004911 0.08870829 -0.032599162
0003b0 9c 4f b4 bb dc b6 24 be 2a 1f 0e 3e e9 37 1a 3d
       -0.0055026542 -0.1608538 0.13879076 0.037650976
0003c0 64 a1 2b bd 63 80 66 3d 0a f7 e6 bd bc 98 aa bd
       -0.04190196 0.056274783 -0.11277588 -0.08329913
0003d0 62 a2 a1 bc 10 c6 cb bb 21 5e 95 bd e5 4d 98 3a
       -0.01973075 -0.0062186792 -0.07293344 0.0011619894
0003e0 c6 73 71 bd 70 f8 2d bd cc 4b 8a 3d 6a ac 5f 3d
       -0.0589483 -0.042473257 0.06752738 0.054607786
0003f0 88 2e b2 3d b3 a5 18 3d 42 c0 0c be 15 bc fd 3e
       0.087002814 0.037267398 -0.13745216 0.49557558

layers.8.bias f4 [32]
000000 94 e8 09 3e 32 68 c9 3d a8 e6 10 3d 10 6c 30 3d
       0.13467628 0.09834327 0.03537622 0.043071806
000010 b9 b5 a2 3d f5 12 91 3d 69 a4 be 3d bd 86 40 bd
       0.07944817 0.07083694 0.093087025 -0.047003496
000020 93 eb fe 3d c7 dc f0 3d 81 fa ef 3d 1f 05 d0 bd
       0.12447276 0.1176086 0.11717702 -0.10157227
000030 65 c9 9a bd 00 3a 3a b9 0f be 9f bd 10 7e 44 bd
       -0.07557944 -0.00017759949 -0.07799923 -0.047971785
000040 cc 93 1c 3d 73 f4 b5 bb cd 2b 11 bd cb 9c 99 3c
       0.038226888 -0.0055528223 -0.035442162 0.018751523
000050 0f 93 05 3e 82 69 08 3e aa be 4a 3b 00 d6 82 bd
       0.1304438 0.13321498 0.0030936399 -0.063884735
000060 51 a2 a2 3d 54 a3 88 3c f8 c8 bd bd c3 5e 3d bd
       0.07941116 0.016679443 -0.09266847 -0.04623295
000070 2f 30 c9 bc dc 90 11 3d 11 55 d9 bc 9a af cb bc
       -0.024559109 0.03553854 -0.02652982 -0.024864007

layers.10.weight f4 [1, 32]
000000 c3 f3 5a 3e 98 87 8e bd b2 75 63 be cb f9 3b be
       0.2138205 -0.06959456 -0.22212866 -0.18357007
000010 07 f8 40 be 67 5d 35 bd fc da 49 3e 7a a0 54 bd
       -0.18844615 -0.04427853 0.19712442 -0.051910855
000020 4b ce 56 3e 4a 00 a8 bd df 92 63 3e 56 7f a0 bc
       0.20977132 -0.0820318 0.22223996 -0.019591969
000030 a0 f8 c9 3d 00 9f 4e bb 71 9d 0d be 08 0c 84 3d
       0.098618746 -0.0031527877 -0.1382959 0.06447607
000040 fc db e4 bd 38 af 93 3d f4 02 d9 bd 91 db 5a 3e
       -0.11174771 0.07211155 -0.105962664 0.2137282
000050 93 c4 dc bd bf 0a 3a 3e 74 3f b3 3c 6a 0f fb bb
       -0.10779681 0.18168162 0.021880843 -0.0076617496
000060 bb 71 b6 bd cd 50 85 bd 2b 01 71 3b ab d9 4f be
       -0.08908411 -0.06509552 0.0036774378 -0.20297877
000070 dc b0 f4 bd 84 c6 4f 3e 12 ff a0 3b c5 a6 0a 3e
       -0.11947796 0.20290571 0.0049132193 0.1354018
