p1_model.pt (torch, 565263 bytes, 11 tensors)

layers.0.weight f4 [32, 5]
00000000: fbeb 263e 30b7 fb3d a44d 133e 3f9e 1c3e
00000010: f1cd e8be 1da7 e9be 8cba 7cbe d343 21be
00000020: 6dd6 be3e d5ad 1d3e c49b 993e 8c4b 99be
00000030: ef7e 51be 8af1 7bbe aa7b 673e 6d73 00bf
00000040: 9a8c c13e b0d8 5abd 6c77 8fbe 1452 693e
00000050: fc70 f5bc f165 0cbe c9cc 263e 92a8 c23e
00000060: 1cd4 f1be 6556 0abf f16c 8b3c 7430 bfbe
00000070: c465 bd3e 902e ccbe fdae 95bd 20d1 a8bd
00000080: 2ecd 303e a6db aabe da3a 033e 10db 0a3e
00000090: 1fe1 b33e 3734 a5be 4c05 13be b263 90be
000000a0: cfb1 273e c70e 01be dd80 c23e 492e 263d
000000b0: 9065 c3bc 2711 fcbe 5a5d e13e 1990 713e
000000c0: 4140 703e 97ab b8be e4a0 083e a152 81be
000000d0: 6969 0cbe 17e6 d73e d9bf a43d 810a f3be
000000e0: 0294 23be e3cc dc3e 2222 2bbe 5d70 c3bd
000000f0: 6c1c dbbe 194b 7e3e fa8f cdbe d517 373e
00000100: 2e91 c2be 7248 093f 3750 a73e 3ab1 e93e
00000110: 63b1 74be 3ce5 b03e b770 3abe 08ee a3bd
00000120: 88a7 8b3e e092 343e 20dc 1e3e 0e3e af3e
00000130: af28 d23e a754 603e 2d35 85bd 0f17 763d
00000140: fc42 383d 323e 44bd 44cb 01bf 408b 953e
00000150: 6208 d7be 32cc 03bf 9ece 0b3c 4354 c23e
00000160: 6706 883e f304 8b3e d67c c93e ef25 9a3e
00000170: 07f6 2e3a cbe7 843e 8d4b 4bbe 340a b23e
00000180: ffc4 e8be 8335 87be b28c fb3d cb5e c2be
00000190: 428e b53e 5b1b 07be cfdc 743e d7b1 74be
000001a0: f0ec 2cbe 758e fc3d 1482 5cbe c50b 903e
000001b0: a2c0 df3e 6693 863e a24f 3d3e 652a 05bd
000001c0: eac4 803e 110f 7a3e fb9a b23e bc10 debd
000001d0: 7631 0ebe c0c0 9cbe b37d 41bc 35ed c83d
000001e0: 796f c1be 8849 b2be 98cf 3e3e 2352 1d3d
000001f0: 3027 7bbe 1dbc 0dbf af4b c03e f737 86be
00000200: 834a fbbd 7613 713d 03f4 263e 3f26 d6be
00000210: 62f7 8f3e 38b0 2c3d 3d01 803c 9df1 ce3e
00000220: 5760 b83e 1c8c 22be 58d6 ab3e d6e1 a93e
00000230: cc4d 6e3e 2405 d2bc 2e16 02be 53aa 5abe
00000240: 4003 d73e 7d91 1f3e 3527 643e 0527 8f3e
00000250: a1e8 853e f5ee 0dbe 52d6 e63e 4f5e 38be
00000260: 04fd 8c3e 5f9b 033e a870 ab3e bf81 833e
00000270: e0f0 893d c9bd 1f3e 1e51 783e 1a02 a9be
0.16300957 0.122907996 0.14385086 0.15294741 -0.4546962 -0.4563531 -0.24680537 -0.15748529
0.3727297 0.15398343 0.30001652 -0.2994045 -0.20458578 -0.24603859 0.22605768 -0.50176126
0.37802583 -0.053429306 -0.280208 0.22785217 -0.029961102 -0.13710763 0.16289057 0.38019234
-0.4723214 -0.5403808 0.01701972 -0.37341654 0.36991704 -0.39879274 -0.07308767 -0.082430124
0.1726577 -0.33370703 0.12815419 0.13560128 0.3513269 -0.322664 -0.1435749 -0.2820106
0.16376422 -0.12603293 0.3798894 0.040571485 -0.02385214 -0.49231836 0.44016534 0.23590125
0.23462011 -0.36068413 0.13342625 -0.25258353 -0.13712086 0.42167732 0.080444045 -0.4746895
-0.15974429 0.43125066 -0.1671224 -0.09542916 -0.42795122 0.24833335 -0.40148908 0.17880185
-0.38001388 0.5362617 0.32678387 0.45643026 -0.23895793 0.34549892 -0.1820706 -0.08004385
0.27276254 0.17634153 0.15513659 0.3422703 0.41046664 0.21907292 -0.06504283 0.060080584
0.044985756 -0.047910877 -0.50700784 0.29207802 -0.41998583 -0.5148345 0.008533148 0.37954912
0.26567385 0.27152213 0.39353055 0.30107066 0.0006674234 0.25958094 -0.19853039 0.3477341
-0.45462796 -0.26408014 0.12282695 -0.37962946 0.35460097 -0.13194029 0.23912357 -0.23895966
-0.1688726 0.12331859 -0.21533996 0.2813398 0.43701655 0.2628433 0.18487409 -0.032511134
0.25150234 0.2441981 0.34883866 -0.108430356 -0.13886055 -0.30615807 -0.011809754 0.09810869
-0.3778036 -0.34821725 0.18633878 0.03840841 -0.24526668 -0.55365163 0.37557742 -0.26214573
-0.12270071 0.05885645 0.1630402 -0.41826054 0.28118426 0.042160243 0.01562559 0.4041871
0.36011 -0.1587376 0.3356197 0.33180112 0.23271865 -0.025637217 -0.12703773 -0.21354036
0.41994667 0.15582843 0.22280581 0.27959457 0.26154044 -0.13860686 0.45085388 -0.18004726
0.27536786 0.12852238 0.33484387 0.25684926 0.067353964 0.15599741 0.24249694 -0.33009416

layers.0.bias f4 [32]
00000000: 8e10 673e 6891 d1be 6991 d43e 4d66 633e
00000010: c955 cb3e 300c 40be 3cb3 f83d 1dd8 803e
00000020: e1fc 543e 8c3b 25bd 8ec2 5cbe 0013 6f3d
00000030: 4459 7abb 0177 b93d 50f9 22be edf1 e63e
00000040: 645e c83d a502 853e 2a72 7e3e 57c7 fabd
00000050: 2e59 14be 450b c4bd c4bd f63e 994e b13d
00000060: 0030 143d f6c5 81be 6d71 b3be 2f22 84be
00000070: 5384 febe aa52 80be ba65 b33d ad69 fc3e
0.22564909 -0.4093125 0.4151719 0.22206993 0.39713886 -0.18754649 0.12143561 0.2516488
0.2079959 -0.04033999 -0.21558592 0.05836773 -0.003820018 0.09055901 -0.15915418 0.4510645
0.097836286 0.2597858 0.24848238 -0.12245052 -0.14487144 -0.09572462 0.48191655 0.086575694
0.03617859 -0.25346345 -0.35047475 -0.2580733 -0.4971033 -0.25063068 0.08759637 0.49299374

layers.2.weight f4 [128, 32]
00000000: fd76 48bd d1ee 423d a804 563c 0b59 fdbb
00000010: 88f8 12be d105 053d 5bfe d8bc fdc1 543d
00000020: 29e6 16bd 0a01 10be 8465 57be 8986 1e3e
00000030: fa44 bb3d 6e4f 193e c665 ab3c 613e f43d
00000040: 527b dcbb bd65 643c 3f3d 033e 1189 c03d
00000050: 937a 4abe bcd1 bdbd ffe7 7abb f11a debd
00000060: 5995 c93d be76 ef3b 13e3 ca3d c002 b9bd
00000070: c01a 3c3e fa57 58bd bd06 b0bd f470 d53d
00000080: 5257 c7bd d325 273c b7bf 14be dfad f5bd
00000090: 5d84 443e 5cf7 79be 6e0f 0c3e 54d4 65bc
000000a0: 61fb 4cbe f3cf b13c d71f f23b 82c4 a7bd
000000b0: cf77 e83d b26d 143e 175c d2bd 76f1 63bd
000000c0: 0da7 a1bd 22c6 3c3e 27b2 6cbe 54be bbba
000000d0: e35d 3c3d f2e2 05be 12bf dbbc fe27 083e
000000e0: fd6e 953d 7f4c 2a3e fbe8 4fbd 5607 c8bd
000000f0: bb7e eabd eb49 17be 4a04 cebc d088 3b3e
00000100: e0b2 8abd 6e1c 1a3d a752 0d3e 6dfe f53c
00000110: 0829 a93d a7be 483e 7518 293e 3f0e d4bd
00000120: 53e4 4dbe 7fe0 85be 4d65 5fbe 0d56 db3d
00000130: d088 aa3c 6f65 f03d 5e10 ffbd 7db3 053d
00000140: 3dc9 33bd dd87 83be 063a 1d3c 9de2 49bc
00000150: 6cca 923b cc9c 87be a42f 0cbc eb52 033e
00000160: 8def b4bc 87df 883c 64aa 3f3e bb91 bdbd
00000170: ec18 123d bc71 fcbe e152 c6bd 4dc7 44bd
00000180: 3ee8 80bd 29dc a3bd 9b35 8b3d 84fc f8bc
00000190: 3968 9cbd de1b 1b3e 8d15 573e 25e1 2abe
000001a0: 60ac dabd bfd0 aabd b5b8 26be fba4 073e
000001b0: 73e1 ad3d f479 913c 68b2 87bd 4757 303d
000001c0: 25fa 9e3d c204 cd3d d2b1 50bd 6424 153e
000001d0: 04f0 1abe 9c25 85bd bfb8 1f3d b70b 713d
000001e0: 2294 133d 543a 263e 746a 4d3c 5cd6 903c
000001f0: f50d 86bd 58ef 3ebe 9472 bfbc 6e5f 26be
00000200: d536 0dbe 1c63 253e b720 ffbd 6ad2 b93d
00000210: a1bc 823c 37f2 39be 2b77 223d 2855 51be
00000220: 6523 b2bd 94d1 d2bc 2b31 93be 35fb 4a3d
00000230: 8259 ecbc b204 36bd a0ce 603e 4842 86bb
00000240: a26d 9a3b 3140 443e 3376 52be f0a2 6ebd
00000250: 71aa 9c3c 5a94 013e 6b4b aebd dcbf c6bd
00000260: 162e 673d 1f28 673d 1866 c0bd ab79 26bd
00000270: 1d11 0f3e fa9b 3bbe 7190 65be 6b68 c93c
00000280: 659e dc3c 1d02 18be 811d 05bd 431c d03d
00000290: a9f3 02be b552 0c3e 02d3 1abe a174 553c
000002a0: 06dc 323c 1c19 103e 4881 0f3e 4024 fabc
000002b0: 4831 f8bd c2ae 99ba c5ba 2cbc 19cb 033e
000002c0: d0c0 b13c bca4 023d 7a11 423e bc78 223e
000002d0: b520 123e e8ce 453d 0d53 ecbc 3501 20be
000002e0: 1c4b a3bd 9bd7 00be 7483 e9bc e132 ad3d
000002f0: 20ac a5bd b647 d63d 8479 093d 7106 743d
00000300: 863b 8b3d 1d27 053e 0b26 ddbd 8316 2b3e
00000310: bb87 eb3d 4a43 443e a266 103e 122d 1cbe
00000320: dfb5 833c cddd 3c3c b6e9 f9bc 7546 643e
00000330: c396 503d 59ea 43be f173 74bd 85d5 38bd
00000340: 0e85 0bbe f479 89bc f55c 82be f494 28be
00000350: f16c 1cbe 9bde 9abd 3674 f6bc dd09 a0bc
00000360: 09ab 383c f808 253e 3d27 15bb 370b 42bd
00000370: 19df 08bd 907c 253e 7ba5 57be e0af 60be
00000380: e05e 923c e080 1e3d 407d 26bb 7e4d 0ebe
00000390: d0c2 3bbd 7c27 14be 10b1 4ebc f022 0b3c
000003a0: bcbb 5f3d 84cc 06bd 124e 2cbe 803a f5bb
000003b0: 70ea 1a3c 61c2 003e 9ace c63d b12f 0bbe
000003c0: 09da 88bd 3c29 2c3d e092 793c a52e 1bbe
000003d0: 35be 13be ee4f e23d f872 afbd d285 9b3d
000003e0: 738d 0cbe 9bbe 1abe c0dd 15be 7bed aebd
000003f0: 5570 e7bd 1c2d 18be 3e84 903d 9093 ecbc
-0.0489416 0.047591034 0.013062634 -0.007731562 -0.1435262 0.03247625 -0.026488474 0.051942814
-0.03684059 -0.14062896 -0.21034819 0.15481009 0.091440156 0.14971706 0.020922553 0.1192596
-0.006728568 0.013940272 0.12816332 0.09401143 -0.19773321 -0.09268519 -0.0038285253 -0.108449824
0.09842939 0.0073078563 0.09906592 -0.09033728 0.1836958 -0.052818276 -0.08595035 0.10421935
-0.09733452 0.010201889 -0.14526258 -0.11996054 0.19191118 -0.24410766 0.13677761 -0.014027674
-0.20017768 0.021705603 0.0073890495 -0.08191778 0.11350977 0.1449497 -0.10271471 -0.055650197
-0.078931905 0.18434957 -0.23114835 -0.001432369 0.045987975 -0.13074854 -0.026824508 0.13296506
0.0729656 0.16630743 -0.050759297 -0.09767024 -0.11449953 -0.14774291 -0.02514853 0.18313909
-0.06772399 0.03762477 0.1380106 0.030028546 0.08259779 0.19603978 0.16513236 -0.1035428
-0.2010663 -0.2614784 -0.21815987 0.10709772 0.02081719 0.11738097 -0.12454294 0.032641876
-0.043893088 -0.25689593 0.009596353 -0.012322095 0.004479697 -0.26486814 -0.00855628 0.128246
-0.022086883 0.016708149 0.18717343 -0.092563115 0.0356683 -0.49305522 -0.09683777 -0.04804163
-0.06294297 -0.080009766 0.06797334 -0.030393846 -0.076370664 0.15147349 0.21004315 -0.16687448
-0.10677409 -0.083405964 -0.16281398 0.13246529 0.08490267 0.017758347 -0.06625825 0.043051984
0.07762555 0.10010673 -0.050950833 0.14564663 -0.15130621 -0.06501314 0.038994547 0.058849063
0.036029942 0.16233188 0.012537587 0.01768034 -0.06545631 -0.1864599 -0.023370065 -0.16247341
-0.13790448 0.16151088 -0.12457412 0.090733364 0.015959086 -0.18158804 0.03966443 -0.20442641
-0.08698157 -0.0257347 -0.2874845 0.049555976 -0.028851274 -0.04443807 0.21953821 -0.004097257
0.0047127763 0.19165112 -0.20552902 -0.058260858 0.019124242 0.12654248 -0.085104786 -0.09704563
0.056440435 0.056434747 -0.09394473 -0.040643375 0.13971372 -0.18321219 -0.22418381 0.024585923
0.026930997 -0.14844556 -0.03249884 0.101616405 -0.12788261 0.13703425 -0.15119556 0.013028295
0.0109167155 0.14072078 0.1401416 -0.030534863 -0.12118775 -0.0011725056 -0.010542576 0.12870444
0.021698385 0.031895384 0.1895198 0.15866369 0.14270289 0.048293024 -0.028848195 -0.1562546
-0.0797331 -0.12582247 -0.028505065 0.0845697 -0.08089471 0.104628965 0.033563152 0.059576456
0.067984626 0.13003202 -0.10798272 0.16707806 0.11500498 0.19166294 0.14101651 -0.15251568
0.016077934 0.011527491 -0.03050695 0.22292502 0.050925028 -0.19132365 -0.059680883 -0.045125503
-0.13624975 -0.016781785 -0.25461546 -0.16463071 -0.15275933 -0.0756199 -0.03008471 -0.019535953
0.011271247 0.16116703 -0.0022758984 -0.047373977 -0.033415888 0.16160798 -0.2105922 -0.21942091
0.017867506 0.038697124 -0.0025404245 -0.13896748 -0.045840085 -0.14468187 -0.012615457 0.0084922165
0.054622397 -0.032909885 -0.16826656 -0.0074837804 0.009455308 0.1257415 0.09707375 -0.13592412
-0.06682212 0.04203151 0.015232772 -0.15154512 -0.14428027 0.11050402 -0.085668504 0.075938836
-0.13725834 -0.15111773 -0.14635372 -0.085413896 -0.113007225 -0.14860958 0.07056473 -0.028878957

layers.2.bias f4 [128]
00000000: 540f dabd 6e04 df3c 7621 74bd 40f2 34be
00000010: f5ac 79bd 6bc2 46be 692a c43c b16b f6bd
00000020: 478f 2abd b605 413e 01ba 47be baf3 be3d
00000030: 5d88 253e 576b d23c 2c85 c53d 274b 5dbe
00000040: 61d3 933c a68f 27be aab9 e03c f529 86bd
00000050: e274 9ebd e527 763d 353b 24be 252b 033d
00000060: a840 463e 68a9 573d 322e ca3d 9212 c43d
00000070: 310c 36be 781e e23d cd13 193e 75e5 2dbe
00000080: f908 a83d a99c a1bd 549b 8ebd fa74 41be
00000090: 6ccd 233e 741d 313e eb01 1fbe d46f 23be
000000a0: 13ab 6d3d da61 963d 81a3 1ebe 0c0a a73d
000000b0: 9d3f 15be db6e 3e3e 7401 2ebe e6fc 1e3d
000000c0: ceab 3e3e 8025 16bd 9f8a 2dbe b4eb 07be
000000d0: 379b 103d 7e67 d5bd 2473 b9bd a496 a23d
000000e0: f672 17be d54c 19bc ba9c 48be 4b68 643d
000000f0: 6c78 3cbe 3102 8ebd 0111 14be c330 86bd
00000100: 04ed 4b3e 2def a6bd fc09 00be 1f01 183d
00000110: f3d1 cc3c 4ff8 173b 20dd c33d 0537 2e3e
00000120: 39f1 4b3e af09 ddbd bbba 8e3c 89f3 693d
00000130: ab14 d7bc f13b d23d f572 cfbd d0f3 043d
00000140: 45b0 4d3c 2424 d0bd baf2 c23d 15b6 843d
00000150: 1d46 893d cdf2 b93d ae64 d73d 5384 4c3e
00000160: a819 b83d a495 943d 97c5 4a3e 6a4e 68bd
00000170: d92b 363e 295f b0bd 37c0 163e 4b03 4dbe
00000180: 53ca b73c 9a5a 1ebe 8176 95bd 6f43 813d
00000190: 8ac2 13bd a1fb aebd b15b 24bd 3201 893b
000001a0: d904 01be 8b5d 313d dd93 bcbd c2b3 f73d
000001b0: 3bba 69bd d095 033e 1d6e bdbd bccf 1dbe
000001c0: 99ac 09be b1b3 0abe d4be 23be c4a0 69bc
000001d0: 840d d63d 4e5e 5d3d 1db9 debd 4cf0 0d3d
000001e0: 9dea f33d 76e1 fabd 8963 1e3e e026 ce3d
000001f0: 3276 1bbe 44f1 d13c 6a53 2dbe 9d6e 10be
-0.10647455 0.027223792 -0.059602223 -0.17670536 -0.06095596 -0.19410102 0.023946004 -0.12032259
-0.041640546 0.18849835 -0.19504549 0.09323831 0.161653 0.02568595 0.09644541 -0.216107
0.01804513 -0.16363391 0.027432282 -0.065509714 -0.077371374 0.06009664 -0.1603821 0.032023568
0.19360602 0.052651793 0.09872092 0.095738545 -0.17778088 0.11040968 0.1494896 -0.16982062
0.082048364 -0.07891209 -0.0696322 -0.1889228 0.15996331 0.17296392 -0.15528075 -0.15960628
0.058024477 0.073428825 -0.1549206 0.08156213 -0.14575048 0.18596976 -0.16992742 0.0388154
0.18620226 -0.036656857 -0.16947411 -0.13273507 0.035304274 -0.1042013 -0.090551645 0.07938889
-0.14789948 -0.009356697 -0.19591036 0.055763524 -0.18405312 -0.06934012 -0.14459611 -0.06552269
0.19914633 -0.08151088 -0.12503809 0.037110444 0.025002455 0.0023188775 0.095636606 0.17013176
0.19916238 -0.107928626 0.017423024 0.05711702 -0.026254972 0.10265339 -0.10129348 0.03245908
0.012554233 -0.10163143 0.09518953 0.06480042 0.06702826 0.09079514 0.1051725 0.19972353
0.089892685 0.07255104 0.19801937 -0.056715406 0.17790164 -0.086119 0.14721762 -0.20020787
0.022435343 -0.15464249 -0.072979935 0.0631169 -0.0360742 -0.08544088 -0.040126506 0.0041810507
-0.12599505 0.0433021 -0.0920789 0.12094833 -0.05706237 0.12850118 -0.09249518 -0.15411276
-0.13444747 -0.1354511 -0.15990764 -0.014259521 0.10451797 0.054045014 -0.10875151 0.034652993
0.11909983 -0.122500345 0.15467657 0.100660086 -0.15181807 0.02562774 -0.16926351 -0.14104696

layers.4.weight f4 [512, 128]
00000000: e728 293c a7ae 873c 0025 6f3d 6f0f ac3c
00000010: 612c aa3d aa46 0bbe a1ee fc3c 3ab2 2cbd
00000020: 1d18 803a ebbd d53c 2d79 283e 0704 56bc
00000030: d2dc 24be fd8a eb3c df68 cfbd b236 debc
00000040: 7086 6a3d f937 3b3c 3317 ba3d bf16 e3bb
00000050: d03e 153c 5be4 ee3c a461 80be 2d43 b83b
00000060: bd6c c6bd ded4 d83c 8d1d bbbd 5f02 87bb
00000070: 8e9f 86bc 242b ea3c 5c31 52bd b1b8 033e
00000080: a44d 903d 305d 1bbd adaa 31bd 1f8c 823d
00000090: d9bd 83bc 0802 82be 7c9c 37bd a90e 15bd
000000a0: 0f60 c1bd f784 d3bd 5f65 67be 1b81 af3a
000000b0: 6841 bbbc 9813 2e3c 5d1d 233d a57f a93d
000000c0: 0b1c c03c 7051 01be e4c6 7bbd 779e ed3d
000000d0: f586 12bd d75c 86bd 506d f73c 4032 35bd
000000e0: 6186 343e 09d8 fc3c 7430 acbc 7db1 033d
000000f0: f3cf 2e3e a221 9ebd 077f 883d 31f6 383d
00000100: 8bf8 febd 8d6b be3d c991 b7bd 758a 59bc
00000110: fe70 a3bd 1882 20be a94a 6abc 7fb1 0d3c
00000120: 22b0 8fbd 477d 3e3c 7aef 583c 46e6 c2bd
00000130: 0cb0 d2bd b231 d0bb f164 ce3c 8dc2 ec3d
00000140: e6f0 c6bd 7d05 003d a193 993d 1fb0 abbd
00000150: f1a7 e0bb 0704 403c 683e f7bc 060f b5bc
00000160: b696 563b e456 a7ba b519 efbd c423 223e
00000170: f3de 26bd a3fe 30be 143f 373d 5dcd ff3c
00000180: a502 b13d dee1 c93d d392 493d b14c 60bc
00000190: 7750 9e3d 6480 5d3d 4faf 4dbe 69e7 e03c
000001a0: 9bff f9bb 10cd b1bd 955e b53d 9940 ebbd
000001b0: 2a9a ccbc a107 523d ca46 0b3d b1fa 96bc
000001c0: 52f7 883d 0843 62bd b7b6 afbc ead2 183d
000001d0: 9a4d 1bbd be4a 623d e75a 963d 8deb 0f3c
000001e0: 7202 e93d ed04 a33d af90 32bd 80ec 9cbd
000001f0: 7611 60bd 18b3 3ebd a295 09be b3a5 8bbd
00000200: 0c8e cebd 68b1 4dbc c37a 7cbd 3589 66bc
00000210: dddc 6f3b b6e5 55bd 4685 52bc bbe9 aebd
00000220: 7b6c 493d 17d4 b13c 2745 bdbc cdbe d6bd
00000230: 4e29 9dbd 3ee4 28bd 6343 293c c896 edbc
00000240: 0845 f2bc ddd6 a13d 0bb5 813d 73af 903c
00000250: 3b99 e1bb 4922 89bd 24fd cbbc a213 aabd
00000260: 1eb4 1ebd 2079 55bd 9129 0b3b 1bd4 b2bd
00000270: 888d 07bd 2ad6 07bd 77cd 10bc f801 8abd
00000280: 801c 06bd 26f1 f0bc 52cb 54bd e948 5d3c
00000290: a431 a3bc ca0d c6bc a0bd 8e3b b186 933d
000002a0: 0e6e 293c bb73 c5bd e4c5 8cbd d318 03bd
000002b0: a250 63bd 8b14 a1bd 9582 253c b78d ccbd
000002c0: 2605 863d 7aeb bfbd a508 5b3c 49f7 f23c
000002d0: a87b 7cbd 2009 743d 50d8 f4bb a135 9a3c
000002e0: f5ff 843d f30d ab3b 7634 debc 6c39 103d
000002f0: d85d b3bd fa2a 7dbb a79c 28bd 75d3 90bb
00000300: 61c2 37bd 7956 edbc 7d92 a7bd 0f4e 79bd
00000310: 6dbd b2bd 1f64 24bd 6171 ffbb ebb7 04bd
00000320: e937 3e3d 4119 d23c 8e6e 903c d67c fc3b
00000330: 5765 49bd 4055 14bb 651b 063d 7ce7 f93c
00000340: b27f 0ebd be42 8bbd 5081 6fbc e8d4 6fbd
00000350: 2973 7a3d bd9a c53c 6e31 5bbd 11b4 25bd
00000360: 9f04 313d c821 883d cd1b c7bc 4bf2 a93d
00000370: db4d d7bd 14a1 353c be9d 7d3b d1fd a03d
00000380: eccd 80bd 665c 85bd cd1c 60bc f424 8dbc
00000390: 0371 913d eef3 50bd 1f0e 81bd 3bae 853b
000003a0: 9ed3 a1bd c34f 103c 49e8 593d 204e b13b
000003b0: 407c 363b 4051 01bd 0c38 773c f012 37bc
000003c0: 628e 913d 0bea ecbc 3c73 c0bd c3e7 9ebd
000003d0: b2bf 75bd c45c 73bc badd 423d 9577 86bd
000003e0: 9540 8b3d ac17 a2bd 80e1 06ba b17e 40bd
000003f0: 2de7 33bc 6e5b e8bc ab3a cc3c f8dc 8fbd
0.010324693 0.016562773 0.058384895 0.021003453 0.08309246 -0.13601175 0.030875506 -0.042162158
0.0009772811 0.026091537 0.16452475 -0.013062484 -0.16099861 0.028752798 -0.101274244 -0.02712569
0.057257116 0.011426919 0.09086456 -0.006930202 0.009109214 0.029161623 -0.25074494 0.0056232424
-0.09688709 0.02646869 -0.09136496 -0.0041201557 -0.016433503 0.028585024 -0.051316604 0.12863423
0.07046059 -0.037930667 -0.04337566 0.06374382 -0.016081737 -0.25392175 -0.04482697 -0.036390934
-0.0944215 -0.103280954 -0.22597264 0.0013389917 -0.022858337 0.010624789 0.039822925 0.082762994
0.023450872 -0.12628722 -0.061468974 0.116024904 -0.035773236 -0.065606765 0.030203491 -0.044237375
0.17629386 0.030864732 -0.021019198 0.032151688 0.17071514 -0.07721259 0.066648535 0.04515666
-0.124497496 0.092978574 -0.08963353 -0.01327764 -0.07980536 -0.15674627 -0.014300027 0.008648275
-0.070160165 0.011626548 0.013240689 -0.095165774 -0.102874845 -0.0063535804 0.025194617 0.11560545
-0.097139165 0.031255234 0.07498861 -0.08383202 -0.0068559577 0.01171971 -0.030181125 -0.02210189
0.003274364 -0.0012766984 -0.11674825 0.15833956 -0.040739965 -0.17284636 0.04473789 0.031225855
0.086430825 0.09857534 0.049212288 -0.01369016 0.07730191 0.05407752 -0.20086406 0.027454095
-0.0076293475 -0.08681691 0.08855931 -0.114869304 -0.024975855 0.051276807 0.034003057 -0.018430086
0.066877976 -0.055239707 -0.02144943 0.03731052 -0.037915803 0.05524706 0.07341557 0.008784187
0.113774195 0.07959924 -0.043595012 -0.07662296 -0.054704152 -0.046557516 -0.13435987 -0.06818714
-0.10085687 -0.012554504 -0.061640512 -0.014070799 0.003660015 -0.052221023 -0.012849158 -0.08540674
0.04917572 0.021707578 -0.023104263 -0.10485611 -0.07673894 -0.041233294 0.010331008 -0.029002562
-0.029573932 0.0790231 0.06333359 0.017661786 -0.0068847216 -0.066959925 -0.02490098 -0.08304526
-0.038745992 -0.052117467 0.0021234492 -0.08731862 -0.03309396 -0.033163227 -0.008838049 -0.06738657
-0.032742023 -0.029411864 -0.051951714 0.013506153 -0.019921131 -0.024176497 0.004356101 0.07203425
0.0103411805 -0.096412145 -0.06873682 -0.032006096 -0.05549682 -0.078652464 0.010101934 -0.099879675
0.06543951 -0.093710855 0.01336876 0.02965893 -0.061641365 0.059579015 -0.0074720755 0.0188244
0.064941324 0.0052201687 -0.027124625 0.03521101 -0.08758134 -0.0038630352 -0.04116502 -0.004419739
-0.04486311 -0.028971897 -0.08182237 -0.060865458 -0.08727536 -0.040134545 -0.0077954982 -0.03240196
0.04644004 0.025646808 0.017630842 0.0077053113 -0.04916891 -0.002263382 0.03274097 0.030505888
-0.03478975 -0.067998394 -0.014618233 -0.058552653 0.06114498 0.024121637 -0.053513937 -0.040454928
0.043217298 0.06647068 -0.024305249 0.08298167 -0.105128966 0.011085767 0.0038698758 0.07860912
-0.062892765 -0.06511764 -0.013678742 -0.017229535 0.071016334 -0.05101388 -0.063015215 0.004079608
-0.07901691 0.008808079 0.05320004 0.0054109246 0.0027845055 -0.031571627 0.015089046 -0.011173949
0.071072355 -0.028920194 -0.09396979 -0.07759049 -0.059997268 -0.01485366 0.047574736 -0.06565777
0.067994274 -0.07914671 -0.00051452965 -0.046995822 -0.01098041 -0.02836391 0.024930319 -0.07024568

layers.4.bias f4 [512]
00000000: fb26 a73c e633 cf3c d3e9 753c ffcb 4a3c
00000010: 3e6c 343c 31f8 0c3e 8c7c 66bc 3a80 b6bd
00000020: b724 8dbd e515 853d 7485 eb3c a4f7 d73c
00000030: 0527 873c eed0 853d 1cb8 233c 4a86 0c3e
00000040: c438 37bd 082a 283d 8969 68bd 2e50 c0bc
00000050: e7c5 353c 3add fdbc a708 1a3d 8e75 203d
00000060: 9f11 32bd 2c51 9c3c ae36 98bd f244 a9bd
00000070: 9b62 f8bb 1207 5bbd 57f0 f3bc 5866 aa3d
00000080: c5e8 873d afe7 933d 6fe3 67bc 34ed 91bd
00000090: b174 bdbd 9397 a03d f99b 0c3d b131 9e3d
000000a0: 6949 92bd 1eb5 153d 5452 ce3d a451 a73d
000000b0: 3042 e2bd 3534 9c3d ab2d bd3d 6434 54bd
000000c0: 8889 243c ce62 cc3d 87a3 87bd dcdb 53bb
000000d0: ac8e 993b 0887 5d3d 664b e4bc 9ae0 edbb
000000e0: 1525 27bc 918e 2c3d 220a 433d eb91 cd3c
000000f0: cec5 61bd 60ee 253d 7cf3 883d 0e64 e43c
00000100: c5be 973d 47ef b93d 89d9 a6bd 649b 57bc
00000110: dcc2 80bd c1f8 39bc dd90 2e3d 3625 6bbc
00000120: fbba 06bb 0f34 1fbd e8fd b83d a382 473d
00000130: 3f7d 8a3c ede7 953c fd08 853d fbf9 d2bc
00000140: f008 6bbd fb45 9fbd be33 cb3d e090 403d
00000150: 3948 21bd 3dea ecbc a967 fbbd 72cd 6fbc
00000160: b2ea 9dbc 6b0b c1bd 71a8 db3d 9d80 91bc
00000170: f624 9cbc 3e5a 2e3d 22a0 da3b 0472 a83d
00000180: 4c8d a5bd e8ee 5bbc bb64 8a3d 1f81 c7bb
00000190: 5b18 75bd c303 1cbc 4c95 36bd 280a 46bd
000001a0: d17a 25bd 18ba bf3d 06c8 e6bc f522 9b3b
000001b0: 6a11 4a3d b46a a2bc ce84 843c 7370 3ebd
000001c0: 534a 48bd 71e3 193c 43ee bcbd 99b4 243d
000001d0: 27fb 5bbd 1a4f a1bd 4347 a8bd 3633 bd3c
000001e0: 20fd 983d 6f3e 6e3d 977f eb3d 599f d13d
000001f0: 6851 4bbd fcdf 9bbd 4a32 afbd 4d75 eebc
00000200: 75e5 c43c f08d 31bc c8a0 023c 8f3d 3abd
00000210: 8ae5 a63c de62 fe3c 23e1 713d ae25 c3bd
00000220: 7b22 033d fe13 803d d3ac 8f3d 544f 0e3d
00000230: f717 6c3c a588 953d 5ee5 033d 15a9 01bd
00000240: d42f 653d ab91 863c fa70 b13b a0bf c23c
00000250: 6bf1 7cbd f29e 873d 2dd1 83bd 523a 543d
00000260: c085 ae3c 1afd 8a3d 3378 99ba 083d a5bc
00000270: 3fd7 973d 134a 8d38 a0d3 283d 9875 8dbc
00000280: 7e58 9e3d ae98 eebc e3b1 78bd c72e 1b3d
00000290: 3842 7d3d acbd 10bd 6501 82bd bd82 03bd
000002a0: 6186 c73b b4cd 493c af6c 443b 82a2 4f3d
000002b0: 7712 573d 4035 dbbc 2e14 a2bc bc68 81bd
000002c0: 7a5a 53bd cee0 96bd b813 163d af11 c33d
000002d0: 3393 46bc 75da 5cbd 5b65 983b 6d10 1e3d
000002e0: 2224 8cbd 1c2f 90ba ef34 cc3c 4b91 2bbd
000002f0: 379f 093d bcd6 1b3d f135 20bd 511d da3d
00000300: e955 29bd 9de0 9e3c 5b5e a23d 93dc 99bd
00000310: 5a40 c8bc 4358 13bc 2e9e aa3d 808c f0ba
00000320: a8f7 dbbd 37bc 3d3d 6a4f 71bd 7e54 a83d
00000330: 20a8 afbd 15f4 bdbc 92e4 b73d 4e89 87bc
00000340: 152e 9b3d 8370 7fbd 0010 dbbd 8a4e 2abb
00000350: 2794 adbc 448f b3bc ff68 1f3d 9734 a7bc
00000360: febc 963d a857 9c3a f504 9f3d 145a 9fbc
00000370: eb37 95bc 1943 1fbd cdfd 233d da42 433d
00000380: ea2c 4f3d 170e 5c3d 85ad 8f3d 9916 6b3c
00000390: 3c5c 3c3d ac76 88bd 073a ab3d e2b8 993b
000003a0: f19a da3b a154 17bd c4f9 8a3d 07b5 453d
000003b0: 2e6d 4fbd 2c09 be3d b882 4bbc 1937 603d
000003c0: db3a 10bd 1f73 073d 494c 4b3c cac3 803d
000003d0: bd27 ae3d ca82 04bd aa97 84bc aa0d 1b3d
000003e0: a3a2 a3bc 47c5 55bd 3aa1 aabc 8f3d 893d
000003f0: f6fe e33c be1f 8e3d 5b20 4ebd 3b1b 7a3b
0.02040433 0.025293302 0.015009361 0.012377738 0.011012135 0.13766553 -0.01406778 -0.08911176
-0.068917684 0.06498317 0.028750159 0.026363201 0.016498098 0.06533991 0.009992626 0.13723102
-0.04473187 0.04105571 -0.05674127 -0.023475733 0.011094547 -0.030989278 0.037605908 0.03917461
-0.043473836 0.019081675 -0.07432304 -0.082651034 -0.007580114 -0.05347354 -0.029777689 0.08320302
0.06636194 0.072219245 -0.0141533455 -0.07125321 -0.09250773 0.078414105 0.034328435 0.07724322
-0.07142908 0.03654968 0.100742966 0.081698686 -0.110477805 0.07627145 0.09237226 -0.051807776
0.010042556 0.09979783 -0.06622987 -0.0032327091 0.0046861973 0.054083854 -0.027867984 -0.0072594406
-0.010201712 0.04212815 0.047617085 0.025093993 -0.055120282 0.040510535 0.06687066 0.027879741
0.07409433 0.09078842 -0.0814696 -0.013159607 -0.062871665 -0.011350811 0.04261862 -0.0143521335
-0.0020558226 -0.038868006 0.09032804 0.04870857 0.016905425 0.018299067 0.06495855 -0.025753966
-0.05738157 -0.077770196 0.099219784 0.047013164 -0.039375518 -0.028920287 -0.12275631 -0.014636384
-0.01927695 -0.09426006 0.10725487 -0.017761523 -0.019060593 0.04256653 0.0066719214 0.08224872
-0.08083591 -0.013423659 0.06757494 -0.0060883905 -0.05983768 -0.009522381 -0.044575974 -0.04834953
-0.04040033 0.093616664 -0.02817155 0.004734392 0.049333014 -0.01982627 0.016176607 -0.04649396
-0.048899006 0.009392605 -0.09225132 0.040211294 -0.053706314 -0.078764156 -0.08216717 0.023095708
0.07470155 0.05816501 0.11498945 0.10235471 -0.049638182 -0.07611081 -0.08554514 -0.029108668
0.024035195 -0.010837063 0.007972904 -0.045468863 0.020373125 0.031053003 0.059052598 -0.09528671
0.032015305 0.06253813 0.070153855 0.034743622 0.014410011 0.073014535 0.032201163 -0.03165539
0.055953816 0.016426882 0.005415079 0.023773015 -0.06175367 0.06622113 -0.064363815 0.05181343
0.021304011 0.067865565 -0.0011708796 -0.020170704 0.07414102 6.737201e-05 0.041217446 -0.017267987
0.07731722 -0.029125538 -0.06071652 0.037886407 0.06183073 -0.035337135 -0.06347922 -0.032107104
0.0060890173 0.01231711 0.0029972007 0.05069209 0.052507844 -0.02675879 -0.019785013 -0.063188046
-0.051599957 -0.07367097 0.0366399 0.09524857 -0.012120056 -0.053919274 0.0046507544 0.038589884
-0.06842829 -0.0011000368 0.024927584 -0.04188661 0.033599105 0.038046584 -0.039113943 0.10650123
-0.041341696 0.019394213 0.07928153 -0.07512774 -0.024444748 -0.008993211 0.08330952 -0.0018352419
-0.10740596 0.046322074 -0.058913626 0.082192406 -0.08576989 -0.023187676 0.08979143 -0.016544964
0.07577149 -0.06236316 -0.10696411 -0.0025986754 -0.021188809 -0.0219189 0.03891849 -0.020410819
0.07360266 0.0011927979 0.07764617 -0.019452132 -0.01821514 -0.03888235 0.040036965 0.047671176
0.050579943 0.053724375 0.07015518 0.014348649 0.0459864 -0.0666326 0.08360677 0.004691229
0.0066713025 -0.036945943 0.0678592 0.048268344 -0.05064123 0.09279093 -0.0124213025 0.054740045
-0.03521238 0.033068772 0.0124083245 0.06287344 0.08503673 -0.032351293 -0.0161856 0.037854828
-0.019975012 -0.05219009 -0.020828832 0.067011945 0.027831536 0.06939648 -0.050323825 0.0038163203

layers.6.weight f4 [128, 512]
00000000: 3fdd 64bd ead7 db3c 3af1 0cbd 6a4f 9e3c
00000010: f6f2 3f3c ee31 82bd 7981 07bc 39b0 f83c
00000020: c234 c83c 827f 18bd ef4c 99bc 0828 0f3d
00000030: 81b4 a1bc 9365 36bd 070b 7a3c 4ffb e1bb
00000040: 4893 3abd 4316 27bd 9edd 9fbb 5f6e e2bc
00000050: 8fd8 efbb 33e4 57bc 2c16 113d 686d f0bc
00000060: 0002 123c 975e 8abb 1622 abbc cd99 eebc
00000070: f5c5 ad3c aa12 d2bc 60a9 3fbd f2b5 60bd
00000080: f58f 62bd e0a8 0d3c e4b7 a03c a825 2ebd
00000090: 5a97 23bd 02ed 44bb 1b12 9a3b 1973 d53c
000000a0: bc44 16bd 962e c33b 6903 62bd 957a a83a
000000b0: d5d6 dfbc 13c1 39bd 3012 95bc c8c5 96bc
000000c0: b5e5 4fbc a5a9 51bd 59b0 f33c b273 0fba
000000d0: 67fc 5c3c 8b01 a7bc fe87 1ebd bb95 473c
000000e0: c670 643c 801c b9bc 142f 14bd 0c6e 6cbd
000000f0: b1c7 42bd 206f a7bc 5405 173d 6c3f 6fbd
00000100: 8d10 adbc 30de 9a3c 29cc efbc b4db 55bd
00000110: c828 2abd 5e18 b43c 17e2 66bd f9e1 78bc
00000120: 1d84 80bd cb2a e3bc 32d9 e93c 62f4 8dbc
00000130: 3d34 1abd a660 cfbc 9332 15bd e4cc c6bc
00000140: d546 253c 87e1 d2bc c491 bdba 7adf 89bc
00000150: fb51 97bc 80b3 2abd 1452 9ebb 0eb6 45bd
00000160: 4dc1 35bd 34dd df3c e915 703c 14bf 17bc
00000170: bd2f 6fbd 923a 39bc a05a cc3c 8f9c 99bc
00000180: 945a 93bc 800f e039 c614 4e3c 9da3 26bc
00000190: fbee 1a3d 2744 89bd 2b2d 12bd 6242 343b
000001a0: cb01 e63c af7a 63bc 36e3 233d dae0 28bc
000001b0: 842d 5dbd e5e5 d7bb cdb2 1d3c c9f6 f3bc
000001c0: aecf 24bd 5cea be3c f46e cb3c bddf 073d
000001d0: b494 1fbc be1b 27bd 7589 c8bc 8fe3 1bbb
000001e0: 8fcb e1bc 287a 753c fdf7 42bd 9bc7 b2bb
000001f0: 307c 783c fe8d 17bd a006 f4bb 686a 7a3c
00000200: e260 21bd daf7 cebc a927 15bd ed1e 263d
00000210: 8f8d c93c a0f8 dabc 5528 13bd fdfd c63c
00000220: b2ce 2e3d ccde 42bd c5b2 3dbb 4ffd a6bb
00000230: 1d95 12bd 0c3a 9a3c 0462 4cbc 906d 083d
00000240: b3d5 d6bc 62eb 43bd bea1 36bc d3dc d33a
00000250: 844b 373d d318 2cbc 3c47 c83c 9225 34bd
00000260: 4a13 a53c 331a 34bd 521f d43c 4c8d a93b
00000270: 7a66 a8bc 36c5 cb3c 1c2d cdbc 7b54 2dbb
00000280: f475 01bd 5982 263d e34f 373b 7f0b 7a3c
00000290: efb5 64bd 58a8 35bd 2038 9abc e521 f23c
000002a0: 7efb 2bbc 5c0b 96bc 7c58 d13c 80fc 55bd
000002b0: 5eb3 623c e119 0dbc bf91 173c 299e c538
000002c0: 9f5e 033d 1ce2 46bd a574 cfba 57b8 c33c
000002d0: 2100 d7bc a3ae 2bbd 575b 9ebb e5ad b53c
000002e0: 7517 f6bc 1ae2 1cbd 0774 24bd dc56 0a3c
000002f0: 2bcf f2bc 0c48 1b3d 6e29 dd3c cf07 aa3b
00000300: 45fb ed3c 0ab0 b7bc 9565 83bd 145c 933c
00000310: 8626 dc3c 474b 6fbc 1a13 75bd 2e59 22bd
00000320: b675 bebc 492e 3abd 9d73 2bbd e16f 1b3d
00000330: cee8 0d3d aa2f b23c 36fa 2dbd ef7c 33bd
00000340: 5a3e ca3c 08f1 5c3c d732 89bc 5d9a 883c
00000350: e2bc d9bb 4e02 f2bc 7b3a 20bd 9f71 7c3b
00000360: fd0d de3c 4927 c5bc b282 40bc 2274 04bc
00000370: 1f66 303c 31de 07bd 6e63 4abd d94a 02bd
00000380: 5a84 eabc 3945 1ebd 7fd0 a43b 269f b03c
00000390: e069 2fbd aa52 ebbc f7ea 0d3c ee07 d3bc
000003a0: 8130 57bb ce85 f5bc 45e5 bfbb d169 723c
000003b0: 445e 8f3c b390 4fbd 064c d9bc 411d 1ebb
000003c0: 68c7 e4bb 0037 a33b 4825 d23c 8d6a 2e3c
000003d0: 2bf7 72bb 44c9 4cbd 8f12 803c ff53 f9bc
000003e0: cd9d 9c3c 9342 f8ba 0651 51bd 117c 9e3a
000003f0: aeba 12bd c406 8a3c 3cb7 603c 8191 a03b
-0.05587506 0.026836354 -0.03440974 0.019324977 0.011715641 -0.063571796 -0.008270615 0.030357467
0.02443922 -0.037230976 -0.018713443 0.034950286 -0.019739391 -0.044530462 0.015261418 -0.0068964134
-0.045550615 -0.040792715 -0.0048787137 -0.02764052 -0.007319517 -0.0131769655 0.035421535 -0.029349044
0.00891161 -0.004222702 -0.020890277 -0.029126072 0.021212557 -0.025643665 -0.046792388 -0.054861017
-0.05531307 0.00864622 0.019618936 -0.04251638 -0.039939262 -0.0030048494 0.0047018654 0.02605586
-0.036686644 0.005956481 -0.055179033 0.0012853915 -0.02732412 -0.045350146 -0.018197149 -0.018404856
-0.012689044 -0.051187176 0.029747175 -0.0005472257 0.013487912 -0.020386478 -0.03870391 0.012181695
0.013942903 -0.022596598 -0.03617771 -0.057722136 -0.04755372 -0.02043873 0.036870316 -0.058410093
-0.021126056 0.018904775 -0.029272156 -0.05221148 -0.0415428 0.021984275 -0.05636796 -0.015190595
-0.062751986 -0.027730366 0.02854595 -0.017328445 -0.037647475 -0.02531464 -0.036425184 -0.024267621
0.010087688 -0.025742305 -0.0014462997 -0.016830195 -0.018471709 -0.04167509 -0.004831562 -0.048269324
-0.0443738 0.027327158 0.014653661 -0.009261865 -0.058395136 -0.011305468 0.024945557 -0.01875141
-0.017987527 0.00042736158 0.012578195 -0.010170844 0.037825566 -0.06702452 -0.035687607 0.0027505388
0.028077027 -0.0138842305 0.040011607 -0.010307515 -0.053998485 -0.006588685 0.009625149 -0.029780762
-0.04023712 0.02330511 0.02483318 0.033172358 -0.009740043 -0.04079794 -0.024479607 -0.0023786759
-0.027562885 0.014982738 -0.04759978 -0.0054559237 0.015166327 -0.03700065 -0.007447079 0.015284158
-0.039399035 -0.02526467 -0.036414776 0.040556837 0.024603633 -0.026729882 -0.035927135 0.024291033
0.04267759 -0.047575757 -0.0028945666 -0.0050961147 -0.035786737 0.018826507 -0.012474541 0.033307612
-0.026224947 -0.0478319 -0.011146961 0.0016163833 0.04474975 -0.010503965 0.02444803 -0.043981142
0.0201508 -0.043970298 0.025893841 0.0051743146 -0.020556677 0.024874311 -0.025045924 -0.002644806
-0.03160663 0.040651653 0.00279712 0.01526153 -0.055837568 -0.04435 -0.01882559 0.029557178
-0.010496972 -0.018315963 0.025554888 -0.052242756 0.01383671 -0.008612127 0.009251057 9.423152e-05
0.03207266 -0.04855548 -0.001582761 0.023891611 -0.026245179 -0.041914593 -0.004832666 0.022177646
-0.030040482 -0.038301565 -0.040149715 0.00844356 -0.029639801 0.037910506 0.026997294 0.005188919
0.029050479 -0.02242281 -0.064158596 0.017988242 0.026873838 -0.01460535 -0.05983267 -0.03963583
-0.023249488 -0.045454297 -0.041858304 0.037948493 0.034645848 0.021751244 -0.042474948 -0.043820318
0.024687935 0.013485201 -0.016747875 0.016675169 -0.006644831 -0.029542115 -0.03911827 0.0038519872
0.02710628 -0.024066584 -0.01174991 -0.008084329 0.010766535 -0.033170883 -0.04941123 -0.03180966
-0.028627563 -0.038640235 0.0050297375 0.021560263 -0.04282558 -0.02872594 0.008661977 -0.025760617
-0.0032835307 -0.02997103 -0.0058561885 0.014795736 0.017501004 -0.050675105 -0.026525509 -0.0024126323
-0.006981779 0.0049809217 0.025652543 0.010645521 -0.0037073593 -0.04999663 0.01563385 -0.03043556
0.019118214 -0.0018940739 -0.05110266 0.0012091418 -0.035822563 0.01684893 0.0137155615 0.004900158

layers.6.bias f4 [128]
00000000: d099 9d3a 29cd c43d 2e65 d8bc ca13 ee3c
00000010: 9876 b53b 57ef 3c3d ff04 67bd 1201 5f3d
00000020: 9288 8cbb f058 f13c 6cd8 0c3e ff97 e2bc
00000030: 8065 16bc d6c9 b0bc b1eb f0bc 9bed a7bc
00000040: 0c69 b93d 44c0 df3d fa10 6dbc 6a99 033d
00000050: a7cb e0bc 50b7 cabb e542 393a 0d0c b0bc
00000060: 4491 eabc e61c 27bd 39ea ae3d 2d4f d73d
00000070: 3044 d3bc 0e9c be3c bbdc 713d a173 43bd
00000080: 100f 41bd d4c7 66bd 60e9 8c3d a00f ef3c
00000090: 280c 9e3d 6bab 923d ba90 5d3d d8d3 b03b
000000a0: d9ae 833d d407 e73d 1b19 e93d 514b 8e3d
000000b0: 23f4 13bd f051 32bd d536 fabb 9678 31bd
000000c0: b7f1 653c ef0c 553c 9e6a 1cbd 1fb3 af3d
000000d0: f97e e5bb 5fdf 8e3d eb23 f33b bc35 46bd
000000e0: 693e 5c3d 3182 983d 557f 243d d108 313d
000000f0: 4e8e a3bb 3acb cc3d 5865 2f3d 3b9a 09bd
00000100: fad6 9f3b a827 b73c d7c5 d73d ac73 b6bb
00000110: 2e3c 3cbc a05e a93c ab2c 903d ba66 c0bc
00000120: 0c22 47bc dd37 3ebd 9922 5f3d c716 05bd
00000130: f720 0f3d 64bc 753b 43f8 bb3d 78ed 243d
00000140: 1b7d 803d c918 d83d 0f31 8abc 687f 59bd
00000150: 884f 873c beeb bcba 00f1 223c 8ddf 6c3d
00000160: 6d65 07bc 26b7 cbbc 23cf 953d de7d a83d
00000170: 981f 6ebd 17bd 9d3d c296 08bd 1e27 bd3d
00000180: 024f 8a3b a429 0ebd e539 183d 6b62 f4bc
00000190: e51b 923b 5096 c43d 16c9 4fbd bc5e 40bd
000001a0: de37 0cbd 64b5 063d 7c94 d73c 76df c93d
000001b0: a6b7 66bd 04df 9f3d b887 083e 248f 803d
000001c0: 0b66 3c3d 118e d03c 8f30 eb3d ffdf ddbb
000001d0: f86c 833d fd3c 233d c2cd 613d dc92 8a3d
000001e0: 86a0 08bd f439 383d a8ff 4d3c 3e57 b4bc
000001f0: e22f 5bbd 01e8 973d de53 a43d beab 54bd
0.0012023989 0.09609444 -0.026415434 0.02906217 0.005537819 0.04612669 -0.05640125 0.05444438
-0.0042887414 0.029461354 0.13754433 -0.027660368 -0.009179473 -0.021580618 -0.029409261 -0.020499041
0.09053239 0.10925344 -0.01446938 0.03212873 -0.027440859 -0.0061864033 0.0007067158 -0.021490121
-0.028633721 -0.040799044 0.08540768 0.105131485 -0.02578935 0.023267772 0.059048396 -0.047717694
-0.047133505 -0.056342915 0.0688045 0.029182255 0.07717162 0.07161602 0.0540931 0.0053963475
0.06429834 0.1128079 0.113817416 0.06947959 -0.0361215 -0.043535173 -0.007635931 -0.04332789
0.01403468 0.013003572 -0.038187616 0.085790865 -0.0070036617 0.069761984 0.0074200532 -0.04839109
0.053770456 0.07446707 0.040160496 0.0432213 -0.0049913293 0.099997 0.04282126 -0.03359435
0.004877922 0.022357777 0.10535782 -0.0055679884 -0.011488957 0.020675004 0.0703977 -0.023486484
-0.0121541135 -0.046439994 0.054476354 -0.032492425 0.034943547 0.0037496323 0.091782115 0.04026553
0.06273862 0.105516024 -0.016869096 -0.05310002 0.016517416 -0.0014413518 0.009945154 0.057830382
-0.008263928 -0.024867605 0.07314899 0.08227132 -0.0581356 0.07702082 -0.0333469 0.09235977
0.0042208442 -0.03470768 0.037164588 -0.029832086 0.0044588917 0.09598982 -0.05072888 -0.046965346
-0.034232967 0.03288783 0.02631592 0.09857075 -0.056327485 0.07806209 0.13333023 0.06277302
0.045995753 0.025458368 0.11483871 -0.006771087 0.064172685 0.039853085 0.055127867 0.067662925
-0.033356212 0.044977143 0.01257316 -0.022014257 -0.05351246 0.07417298 0.08023809 -0.0519216

layers.8.weight f4 [32, 128]
00000000: 8c89 553d e72b 733d 6397 a3bd 3b3c f43c
00000010: 5aff 90bb 9501 53bd a1ec 88bd c0bf d0bc
00000020: 5822 c5bd f3a4 673e 8906 d03d ffe7 a4bd
00000030: 75b7 cabc 0d45 123d ecbf abbd 3f19 5dbe
00000040: dd09 e63a c996 893d 5164 c53b 7443 0abd
00000050: 1b2c d8bd 2fac c03d c475 a6bd 8a73 fbbd
00000060: 1311 76be d150 fa3c 6d8d 323d d417 1f3e
00000070: 3b47 503c b204 dbbd 24ca 5d3e d8ea 25bd
00000080: 3b9a 9dbd 475c 8c3d 640b fc3b 5214 f53d
00000090: 9d09 81bd 445f 853d 9246 813e 47f9 a4bd
000000a0: 9e2d c3bc 9c64 cd3d d451 0d3e 1e4d 883d
000000b0: 856a ad3d 5c91 b5bc 5352 c03d 9598 c0bd
000000c0: 56f2 9dbd 69ff bd3d a705 b03d 9077 aa3d
000000d0: 1b10 cabd 36de 0abd 7aad 2c3d 7e67 9bbd
000000e0: 55b8 433d 1075 b53d 413a 2d3e c6a6 403c
000000f0: 855a 733d 7395 ad3c 01e4 8c3c 4383 183c
00000100: 6ac0 6bbd 10d7 1dbd b5e4 dd3d f77e c03b
00000110: 83b3 ad3c 7105 623d e0f2 c03d 1b02 023e
00000120: 653a abbe 34d8 fb3a 0c69 fcbc fa13 dfbc
00000130: 3cd6 77bd 1ff1 fbbd 35c9 043d f144 c23d
00000140: 4201 dd3d 2824 a1bc 80df f8bc 85b7 a33d
00000150: 586a 3e3c ec59 023d 280b 1fbc d7f4 a43e
00000160: 00bc 003e afbb 97bc f7b6 ac3d e200 b33d
00000170: b268 17bc 7596 d73d 1c43 2dbe 08bc 64bc
00000180: a892 a63a ac62 d03c 52e8 2ebd 0387 523d
00000190: d7f4 10bc e024 803d 376a a2bd 8bac e43c
000001a0: 4c2d 43be 80ef 113d 7f3c 85bd 7c80 a23d
000001b0: 960a 6bbd 8915 5e3e 5901 203e 0a08 453d
000001c0: fd51 82bd e4b1 05be b965 c83d a515 4cbd
000001d0: dc48 c73c a390 e7bc fa37 43bd b064 713d
000001e0: 50b2 9e3d acca afbc ad47 c13c 8ded 3dbd
000001f0: ed04 fabc 44f0 233d c31d 24bd cf9c 2bb9
00000200: 930a 88bd 9f16 233e 3800 4fbd 921f 16bc
00000210: 335e 1cbd 68f3 983d 3eb7 163d 1ec5 33bd
00000220: 066e 44bd 3c24 c3bd 567c e23d eeaa 58bd
00000230: dfa0 a03c 031e 81bd 2be5 533c 48bf 563c
00000240: b5e7 ac3d ccfd 403d 6bc1 e7bb e69d 8c3d
00000250: 12ab a3bc 1414 963d 6e2d 5fbc e099 5d3d
00000260: 95e4 f13c a0af d43a 0d0c 313d ea98 8f3d
00000270: 2a6c 4ebd 5b48 773d 1442 60be ce11 acbd
00000280: 0a83 b3bb 082c 183d 7c44 87bd 2ccb 80bd
00000290: aec8 843d 406a fbbd b7c9 39be c72d db3c
000002a0: 3e1a 95bd a110 47bd e1b5 91ba 33d4 9fbd
000002b0: b6af 853d 9877 cb3c 97dd 783c 70c8 9d3d
000002c0: bd72 0cbc c445 853d 9125 9e3d a812 ca3d
000002d0: 564f 2c3c e765 60bd 0c7d a63c 3cf7 9bbd
000002e0: 65b1 59bd 2edb 343d 1373 87bd 589a b8bc
000002f0: 9daf 1c3c 6ea4 90bb 71af a43b 0fc4 423d
00000300: 8d75 df3d 9849 7e3d 6ba2 dcbd 83ab 5b3d
00000310: 480e f63b ca4d 3c39 6287 dabd f6f5 14bc
00000320: 58c2 773d 570f e4bc 9215 0cbc 4c53 7f3d
00000330: 5cf7 7a3d f37e c2bc 386f 1dbe 40ea 0a3d
00000340: 375f a7be 3e97 803c fa33 b93d 35cf d4bc
00000350: a02c c03d 3e3a 18bd f494 62bb 5cb3 a9be
00000360: 014d 8d3c 1f3b 0fbc cdf9 c73c 7fb0 edbc
00000370: a796 50bd cc3f cf3c 15f0 d53d bf19 643d
00000380: 3fdf 97bd c259 c03c 906a 19bd fe7a 0cbd
00000390: 5414 63bc 7d2b 0d3d 283d 8bbd 37d1 aebd
000003a0: e872 843d 518d 2ebd 3e85 c13d aae8 64bd
000003b0: 22d7 b63b 32ed 21be cc37 333e 52ba 1b3c
000003c0: c541 f8bc 5b5c 633d 6bec 14bc 4763 a3bd
000003d0: d9a9 deb9 76af b6bc d0fd bfbc 55a1 f13a
000003e0: 1b30 47bd 6780 5a3c cd88 a33d 2a9e 5b3d
000003f0: d771 a23d fece c8bd 6f65 c8bd 0419 053e
0.052133128 0.05936804 -0.07987859 0.029813876 -0.0044249715 -0.05151518 -0.066857584 -0.025482059
-0.09625691 0.22621517 0.101574965 -0.08052062 -0.024745682 0.035710383 -0.083862156 -0.21591662
0.0017550547 0.06718213 0.0060239215 -0.033755735 -0.105552875 0.094078414 -0.08127931 -0.12277897
-0.24029951 0.030556114 0.043591905 0.15536433 0.012712295 -0.10694255 0.21659142 -0.040507168
-0.07695433 0.06853538 0.0076917876 0.119667664 -0.06300662 0.06512311 0.25249153 -0.080553584
-0.023825463 0.10028955 0.13800746 0.06655334 0.084675826 -0.02216404 0.09390702 -0.09404103
-0.077122375 0.09277231 0.08594828 0.08323586 -0.09866353 -0.033903323 0.042157628 -0.07588099
0.047783215 0.088602185 0.16916753 0.011758512 0.059412498 0.021189427 0.017198564 0.009308639
-0.057556547 -0.038535178 0.10834638 0.0058745104 0.021203762 0.05518097 0.09421325 0.12696116
-0.3344299 0.0019214214 -0.030811809 -0.027231205 -0.060507044 -0.123018496 0.03241845 0.09485806
0.107912555 -0.019670561 -0.03038001 0.07993988 0.011622034 0.031824037 -0.00970725 0.32218048
0.12571716 -0.018522112 0.08433335 0.08740403 -0.00924127 0.10526744 -0.16920131 -0.013960846
0.0012708502 0.025437675 -0.042702027 0.05139829 -0.008847437 0.06257033 -0.07930415 0.027914306
-0.19060248 0.035628796 -0.06505679 0.07934663 -0.057383142 0.21687903 0.15625514 0.04810337
-0.06363294 -0.13056141 0.09785027 -0.04982533 0.024326734 -0.02826721 -0.047660805 0.058933914
0.07748854 -0.021458946 0.023593748 -0.046369124 -0.030519927 0.040024057 -0.040067445 -0.00016366247
-0.06642642 0.15926598 -0.050537318 -0.0091628 -0.038175773 0.07468301 0.036795847 -0.043889157
-0.04795649 -0.095283955 0.110588714 -0.052897386 0.01960796 -0.063045524 0.012933056 0.013107128
0.08442632 0.04711704 -0.0070726178 0.06866054 -0.019979034 0.07328048 -0.013621671 0.054101825
0.029527942 0.0016226657 0.043224383 0.07011588 -0.050396122 0.060371738 -0.21900207 -0.084018335
-0.0054782676 0.037151366 -0.06604859 -0.06288752 0.06483589 -0.12276125 -0.18143354 0.026755227
-0.07280396 -0.048599843 -0.0011116826 -0.07804146 0.06527655 0.0248373 0.01518955 0.07704246
-0.008572278 0.06507447 0.07722009 0.0986684 0.010516962 -0.05478468 0.020323299 -0.076155156
-0.053147692 0.04415434 -0.066137455 -0.022534534 0.009563354 -0.004414133 0.005025797 0.047550257
0.10911093 0.062081903 -0.10773166 0.053630363 0.0075090267 0.00017958056 -0.106703535 -0.009091845
0.060488075 -0.027839346 -0.008550065 0.062335297 0.061271057 -0.023742175 -0.15374458 0.033914804
-0.3268983 0.015697118 0.09043117 -0.02597771 0.093835115 -0.03716492 -0.0034573646 -0.33144653
0.017248632 -0.008742123 0.024411106 -0.029014824 -0.050924923 0.025298975 0.10446183 0.055688616
-0.07415628 0.0234803 -0.03745514 -0.034296982 -0.013859827 0.0344653 -0.06798774 -0.08535998
0.06467229 -0.04261524 0.09449242 -0.05588595 0.005579845 -0.15813139 0.17501754 0.009504871
-0.030304799 0.055508 -0.00908957 -0.0797792 -0.00042469686 -0.022300463 -0.023436457 0.0018434922
-0.04862986 0.013336278 0.07985077 0.053617634 0.079318695 -0.098051056 -0.09784972 0.12997824

layers.8.bias f4 [32]
00000000: a191 fd3d e4fa db3d 9c17 7d3d ae9c 403d
00000010: 675b d13d 129d 923d 9519 e93d 8534 12bd
00000020: d357 f43d 96c0 e83d 1ca0 da3d 1869 a8bd
00000030: 6125 99bd b1be 7bbc 629a 39bd 107e 44bd
00000040: 6ca7 873d 222c 74bb 7086 0ebd c0bd e8bb
00000050: 9ee5 eb3d 798d f53d 79de d83b cde1 edbd
00000060: 38bb df3d 8679 203d 100a bbbd fe80 a1bc
00000070: 0ace 1cbd 2a7c c13c d9ab 1abc a337 adbc
0.12381292 0.10741213 0.061790094 0.04702442 0.10222512 0.07158865 0.113818325 -0.035694618
0.11930814 0.11364858 0.1067507 -0.0822317 -0.074778326 -0.015365289 -0.045313247 -0.047971785
0.0662373 -0.003725775 -0.03479618 -0.007102698 0.115184054 0.119898744 0.0066183177 -0.11615334
0.10924381 0.039178394 -0.09132779 -0.019714829 -0.03828243 0.023618776 -0.009440386 -0.021144694

layers.10.weight f4 [1, 32]
00000000: 9785 593e ef7a 86bd 1c78 60be bf6e 3ebe
00000010: 8bfa 3cbe 1a6e 4cbd 02ac 2c3e b406 83bd
00000020: a809 4c3e 30f4 adbd 9797 573e aa2f c2bb
00000030: 8115 df3d b861 403c 52f3 bfbe 080c 843d
00000040: 8db0 1cbd d512 873d e36d d5bd 7a01 443e
00000050: bd22 dcbd de7f 0b3e 9cf8 b739 e17b 39bb
00000060: 2174 b9bd f6a6 78bd dd88 9fba 527c 46be
00000070: 9f5c c7bd 6773 3e3e f392 d33c 4e48 183e
0.21242367 -0.065664165 -0.21920818 -0.18596934 -0.1845495 -0.04990969 0.16862491 -0.06397763
0.19925559 -0.08493841 0.2105392 -0.005926092 0.108927734 0.011742048 -0.37490326 0.06447607
-0.03825431 0.06595389 -0.1042135 0.19141188 -0.10748813 0.13622996 0.00035089708 -0.0028302597
-0.09055353 -0.0607061 -0.0012171526 -0.19383362 -0.09734463 0.1859871 0.025826907 0.14871332
