p1_whole_model.pt (torch, 566691 bytes, 11 tensors)

weight f4 [32, 5]
00000000: f0a4 e73d 18bd c63c 32dd 283e 5964 2f3e
00000010: 5cf5 eabe 3758 12bf f794 8abe 9ebe 8fbe
00000020: b99b 8c3e 7983 413e 2669 cf3d 0553 97be
00000030: 2223 79be d1c4 43be f531 603e 5c5d 08bf
00000040: 083c ac3e 2924 07be 6e36 9cbe 79c4 813e
00000050: 7669 11be 6572 22be 935d 323e eea7 c73e
00000060: 4fa2 ccbe 896b 0dbf 83fe 703a ca30 d5be
00000070: d9e5 b73e 8997 cdbe 76f7 62be 475d 97bd
00000080: 87c4 083e 2ef0 a2be f7fc 273e d06b ca3d
00000090: a418 893e cd96 7dbe 0d83 60be 4bc1 85be
000000a0: b92b be3c 31ae 2cbe 1896 aa3e 8cc2 d0bc
000000b0: 9bdb 80bd a16d 12bf f3cc cd3e 047f ef3d
000000c0: 789d 9e3e 73a3 f7be 5556 293e c804 a2be
000000d0: e781 10be ed4a b53e bdd9 5dbe 94f4 38bf
000000e0: 88d9 dfbb 8b31 d93e 8a1a dabd ad3f 883b
000000f0: cb4a 04bf 77d9 583e edf7 fcbe 569a 0d3e
00000100: a9ae d4be d561 033f a5b8 ae3e 0859 d73e
00000110: 87d9 9fbe d439 a93e fb19 86be decc 90bd
00000120: bd1c 853e 7436 603e 06d6 b93c ea35 6f3e
00000130: 79ae af3e 3085 1a3e e6fa 24be 543d e43d
00000140: 84b3 4ebb deab 3fbd 8ff1 d4be e139 b63e
00000150: dadd f9be 6acc d4be eeb8 d9bb a03d 893e
00000160: 8b20 983e cee9 ab3e 2fbe e13e d4d9 303e
00000170: d32a 32bd 644d 673e 6bea 60be aeff 883e
00000180: e14c c5be f0ee c3be 7b26 82bc cfae 09bf
00000190: 9e53 d93e 5650 cd3c 1b73 d73d f2dd 8ebe
000001a0: dee0 83be a319 b73d 56b0 8ebe 1f43 363e
000001b0: a416 da3e 020b 433e b8dd ad3d 710e edbc
000001c0: 8475 213e 5998 903e c4c9 d63e a159 7ebe
000001d0: d2cf cbbd 55b9 a0be baaa bb3c 831d ef3d
000001e0: 4d80 8cbe c4a9 e0be ab17 0c3e 2735 89bc
000001f0: bfbc c4be 5c0e 08bf 3d82 833e dd09 7bbe
00000200: b4be 7cbe e825 deba e516 663e 67a7 e7be
00000210: 32da 713e 9d2a 9b3d 1dd6 9dbc 21af a13e
00000220: 153a d83e 3009 8bbd c338 9f3e e8a8 ae3e
00000230: b346 0cbe f376 ce3d 09f5 a3bd 0be2 67be
00000240: 14ce f73e 19c4 133e 7d32 2d3e 53c4 633e
00000250: c18a 583e 61d7 97bd d52f cc3e 3b31 dbbc
00000260: 7fae 8d3e 6e79 f13d 6535 7a3e bf7e 003e
00000270: 47bc 09bd 4098 2b3e 51e3 773e 8952 cabe
0.11310756 0.024260089 0.1649063 0.17128123 -0.4589032 -0.57165855 -0.27066776 -0.28075117
0.27462557 0.18897809 0.10127477 -0.29555526 -0.24329808 -0.19118048 0.21894057 -0.53267455
0.3363955 -0.13197388 -0.30510277 0.2534521 -0.14200386 -0.1586395 0.17418508 0.38995308
-0.39967582 -0.5524221 0.00091931986 -0.41638786 0.35917547 -0.40154675 -0.22164711 -0.07390838
0.13356219 -0.31823868 0.16405092 0.09883845 0.26776612 -0.24764557 -0.21924992 -0.26124033
0.023214208 -0.16863324 0.33317637 -0.025483392 -0.062918864 -0.5719853 0.40195426 0.11694148
0.30979514 -0.4836689 0.1653684 -0.31644273 -0.14112054 0.35408726 -0.21665092 -0.72248197
-0.0068313517 0.4242061 -0.10649593 0.0041579814 -0.51676625 0.21176706 -0.49407902 0.13828406
-0.41539505 0.51321155 0.34125248 0.42060113 -0.31220648 0.33051932 -0.26191697 -0.07070325
0.25998488 0.21895772 0.022685062 0.2336041 0.343128 0.1508987 -0.16111335 0.1114451
-0.0031540105 -0.046794765 -0.41590545 0.35591033 -0.48802072 -0.41562206 -0.00664436 0.2680483
0.29712328 0.33576816 0.4409041 0.17270595 -0.04349787 0.22588116 -0.21964423 0.26757568
-0.38535216 -0.38268232 -0.01588749 -0.5378236 0.42446607 0.025062721 0.105200015 -0.27903706
-0.25757498 0.08940437 -0.2786891 0.17799042 0.42595398 0.19047168 0.08489555 -0.02893755
0.15767485 0.28241232 0.4195081 -0.24838878 -0.09951748 -0.31391397 0.022908557 0.11675551
-0.27441636 -0.4387952 0.13680904 -0.016748978 -0.38425252 -0.5314691 0.256853 -0.24515481
-0.24682122 -0.0016948553 0.22469671 -0.45244905 0.23618391 0.07576487 -0.019267136 0.31578925
0.42231813 -0.06788862 0.31097993 0.3411324 -0.13698845 0.100812815 -0.08005721 -0.22644822
0.48399413 0.14430274 0.16913791 0.2224286 0.2114668 -0.07414127 0.39880243 -0.026756873
0.27672192 0.11790739 0.24434431 0.1254835 -0.03362682 0.16757298 0.24207808 -0.39516094

bias f4 [32]
00000000: 375f c33e e765 ddbe 63d7 163f 6bac 913e
00000010: 7dad d83e c660 7cbe fc9b 1c3e 9931 ed3e
00000020: 447e a03e 25a9 f6bc c880 2fbe dc1f a73d
00000030: 35d1 aa3d 9842 9c3d c998 793d a978 013f
00000040: b75e d53d 1dbd c23e 05c6 873e 1e2d 31be
00000050: f7d2 b0bd f244 30be f882 023f 55f6 7a3e
00000060: 8936 af3c 0849 79be e31e 9dbe 3599 d9bd
00000070: 5d89 0bbf 64ca acbe 2781 8a3e 944a f43e
0.3815858 -0.43241808 0.58922404 0.28451857 0.4231986 -0.24646291 0.15293878 0.46326903
0.31346333 -0.030109951 -0.1713897 0.081603736 0.08340684 0.07629889 0.060936723 0.5057474
0.10418456 0.38034907 0.26518264 -0.17302367 -0.08633988 -0.172138 0.5098109 0.2450803
0.02138831 -0.24344265 -0.30687627 -0.10624925 -0.54506475 -0.33748162 0.2705166 0.4771315

weight f4 [128, 32]
00000000: b565 49bd 0e38 193e 5f0c bf3d d95f 983d
00000010: bb8e 14be 65d0 c1bd 1828 073d d9e7 c23d
00000020: 2e5e de3c 9f93 0cbe 2946 debc 5cf5 213e
00000030: 347d e63d 49ed c73d 13f1 18be eea7 073e
00000040: b51e 99bc 926e 073d 9315 813d 6eb0 303e
00000050: b7ea 03be 5274 d5bd c50d 24bc 31e0 a2bc
00000060: 042e e63d 958b 893d ed20 343e ebf5 d2bd
00000070: 8ce3 d83d fb65 d53c 5d3a e4bd ae4f ba3d
00000080: 029a cfbd fb33 2dbc 2859 bbbd 9622 0abe
00000090: 7752 5e3e 7979 30be fe2a 1e3e 1d0c 2f3c
000000a0: f5d3 b1bd 78ff 9fbb e94a 9bba 960e 2b3c
000000b0: 923f fd3d 5a35 413e eed0 c9bd 4b3a 15bd
000000c0: aa84 4bbd 2ff6 373e 4699 d7bd 98b1 c5bd
000000d0: 57c3 bf3d f45b 61bd 08e5 113d a3a2 0a3e
000000e0: 5d72 dd3d 3626 fa3d 6b85 723d 5692 9dbd
000000f0: ad58 eabd 4dd3 debd 76fa 503d feae 383e
00000100: 084f 9fbc 8e95 1c3e ab06 253e b8a5 a83c
00000110: 927a e33d 1219 853d 8f8d 003e 25ae c2bd
00000120: f2c8 07be de86 18be 9511 62be d008 113e
00000130: 9371 0e3d dc89 e0bb db9c 1b3d c203 893d
00000140: c927 6abc 05a5 ebbd 3b56 1cbd 505c 523d
00000150: 052d d83c a67e 943d ebd5 a23d a521 323e
00000160: 6c04 22bd 7798 d23c 7e52 e83c faa1 17bd
00000170: e3b7 9bbd 5fa6 b33d b932 02be eaf6 e63b
00000180: 8e4a 20bc ec02 2bbc 74e7 013e f3cb 8dbd
00000190: fabb 8bbd e137 373e bf0f 293e f511 e1bd
000001a0: 9908 23bf c083 81bd a925 cfbd b8d8 1cbd
000001b0: 2df9 133e 3f42 6d3d 3cab b8bc db25 b73d
000001c0: b1b2 ea3d d313 983d 7f20 ed3c 785b 463d
000001d0: d8c8 65bd 7ee3 46be 77ee e83d d130 ba3d
000001e0: 9a7e 893d 665d 093e 3cee c3be e38a a03d
000001f0: 23ba 6ebd f322 9ebe 4540 763d 2082 dbbd
00000200: a4b8 16be e076 1f3d d497 18bd 4ea6 343d
00000210: 20ea 733c d45b 33be c8ca ce3c f7df f3bd
00000220: 1cfe e9bd 6766 09be 52f6 dabd ed7e c7bc
00000230: d42c 65bd 19ff 25bd 7fb3 f03d 06f2 9e3a
00000240: d469 8cbd fcd5 c83d 20e1 9a3b 00e2 8339
00000250: 70ba 413c 546a d43d e049 e2bd ca5c f6bd
00000260: 1808 c03c 979d 97bc 6a00 8cbd 156e bcbd
00000270: b114 fc3d 7600 babd 80c0 18be 2498 383d
00000280: 6f29 17bd 3066 c3be 7bf1 b13d d102 113e
00000290: 7626 43be 0e1b d93d 6484 8ebe 1065 bbba
000002a0: 5f14 86be 8380 f13d 834e 0d3e 1e38 c33c
000002b0: 85ec 0fbe 5ff3 57be d8e8 35be 315c bb3c
000002c0: 5f76 3e3d 92d8 c23d 546f 773d 681c 083e
000002d0: ba3f 523d 7968 3bbd 6d94 9cbd 2ae1 57bd
000002e0: feeb 2fbd 2eef 5dbd 7d69 7abd 46dc 5f3d
000002f0: b396 15be 93e7 82bd f83c bbbd fa0a 88bc
00000300: da99 2b3e fcf9 dc3d 5a73 f93c 0c15 2a3e
00000310: 0efb 283e 7dad 0b3e 4512 003e 22af 88bd
00000320: 8c01 d93d 09c4 23bd 673a 683d c13e 3a3e
00000330: a046 693d 23ef 07be 77e4 1abe 1475 eb3d
00000340: 64a5 c5bd c0d6 5ebd da8b 9dbd 5e67 16be
00000350: a67e f8bc 5bc9 cfbd 33bd aa3d 6f7d 0c3a
00000360: ea47 87bd 80bf dc3d fa1c 07bc 6d1e 4b3c
00000370: a3c9 30be 8d8d cabc 0af3 9bbd 78cd 9ebd
00000380: e05e 923c e080 1e3d 407d 26bb 7e4d 0ebe
00000390: d0c2 3bbd 7c27 14be 10b1 4ebc f022 0b3c
000003a0: bcbb 5f3d 84cc 06bd 124e 2cbe 803a f5bb
000003b0: 70ea 1a3c 61c2 003e 9ace c63d b12f 0bbe
000003c0: 09da 88bd 3c29 2c3d e092 793c a52e 1bbe
000003d0: 35be 13be ee4f e23d f872 afbd d285 9b3d
000003e0: 738d 0cbe 9bbe 1abe c0dd 15be 7bed aebd
000003f0: 5570 e7bd 1c2d 18be 3e84 903d 9093 ecbc
-0.04916926 0.1496279 0.093285315 0.074401565 -0.14507572 -0.09463576 0.03299722 0.09516878
0.027144518 -0.13728188 -0.027133064 0.15816253 0.11254349 0.097620554 -0.14935713 0.13247654
-0.0186914 0.033064432 0.06302943 0.17254803 -0.12882505 -0.10422577 -0.010013049 -0.019882293
0.112392455 0.06716076 0.17590685 -0.103008114 0.10590276 0.026049605 -0.111439444 0.09097229
-0.101367965 -0.010571475 -0.091478646 -0.13489756 0.21711145 -0.17233838 0.15446088 0.01068404
-0.08683006 -0.004882749 -0.0011847886 0.010440489 0.12365641 0.18868008 -0.09854303 -0.036432546
-0.049687065 0.17965005 -0.105272815 -0.09653014 0.0936343 -0.055019334 0.03561881 0.13538603
0.10812829 0.122143194 0.05920927 -0.07693927 -0.11442695 -0.10880146 0.05102011 0.18035504
-0.019446865 0.15291426 0.16115825 0.020586833 0.11107363 0.064989224 0.12554 -0.09505872
-0.13260248 -0.14895198 -0.2207702 0.14163518 0.03477628 -0.0068523716 0.037991386 0.0669017
-0.014291712 -0.11506084 -0.038168173 0.051357567 0.026388654 0.07250719 0.07950958 0.17395647
-0.039555 0.025707467 0.028359648 -0.037019707 -0.07603433 0.08771967 -0.12714662 0.0070484774
-0.0097834 -0.010437708 0.12685949 -0.06923666 -0.06822963 0.1789241 0.16509913 -0.10989753
-0.63684994 -0.063239574 -0.10114605 -0.038292617 0.14450522 0.057924505 -0.022542588 0.08942767
0.11459864 0.07425656 0.02894616 0.048427075 -0.056099743 -0.19422719 0.113736086 0.09091342
0.067136005 0.13414535 -0.38267696 0.078389905 -0.058282983 -0.3088604 0.060119886 -0.10718179
-0.14718872 0.038931727 -0.03725417 0.044103913 0.014887363 -0.17515498 0.025243178 -0.11907952
-0.11425421 -0.1341797 -0.10691513 -0.024352515 -0.055950955 -0.040526483 0.11752986 0.0012126572
-0.068561226 0.09806439 0.004726544 0.0002515465 0.011824235 0.10371843 -0.11049247 -0.12029417
0.02344136 -0.018507762 -0.068360165 -0.09200684 0.12308634 -0.09082119 -0.14917183 0.045066968
-0.03690475 -0.381639 0.08688637 0.1416123 -0.1905764 0.106008634 -0.2783538 -0.0014297087
-0.26187417 0.1179209 0.13799481 0.02383047 -0.14055069 -0.21088932 -0.17764604 0.022871109
0.046499606 0.09513964 0.060408905 0.13292086 0.051330306 -0.04575393 -0.076454975 -0.052704968
-0.04294967 -0.054183178 -0.061135758 0.05465343 -0.14608268 -0.063918255 -0.09142488 -0.016606797
0.16757908 0.10789868 0.030450512 0.16609591 0.1650202 0.136404 0.1250697 -0.06674029
0.10595998 -0.039981876 0.05669632 0.18188001 0.05695212 -0.13274817 -0.15126215 0.1149694
-0.096506864 -0.05440402 -0.0769269 -0.14687869 -0.030333828 -0.101458274 0.08336868 0.0005359267
-0.066055134 0.10778713 -0.008246655 0.012397391 -0.17264418 -0.0247257 -0.076147154 -0.07754034
0.017867506 0.038697124 -0.0025404245 -0.13896748 -0.045840085 -0.14468187 -0.012615457 0.0084922165
0.054622397 -0.032909885 -0.16826656 -0.0074837804 0.009455308 0.1257415 0.09707375 -0.13592412
-0.06682212 0.04203151 0.015232772 -0.15154512 -0.14428027 0.11050402 -0.085668504 0.075938836
-0.13725834 -0.15111773 -0.14635372 -0.085413896 -0.113007225 -0.14860958 0.07056473 -0.028878957

bias f4 [128]
00000000: 836d 09bd b766 b03d 3239 f53b 4697 03be
00000010: 867c 4cbd ec99 47be d2b6 4c3e b16b f6bd
00000020: ce5a 0cbd aaaa 733e 43ea 3dbe a704 473e
00000030: 3524 6e3e 8ae3 133e e5af 3b3e ee0a 7cbe
00000040: e1dd 303d 7e90 e1bd 7455 a5bd fbbe 713d
00000050: 555b 49bd 6b8f 163e 350e 48bd 2829 e23d
00000060: 14ff 833e dd14 f13d cba5 143e c435 193e
00000070: d62d e7bd 775a 613e 7399 3e3e 9946 f2bd
00000080: 2fc7 0f3e 83c2 373c 3ecb 90bc 33e0 c2bd
00000090: 80b6 713e 8822 5b3e 287e 93bd e586 93bd
000000a0: bd0f f43c 576b 333e 15fe babd 75c4 433e
000000b0: 6dd4 bebd b4e7 8c3e a206 debd 7ae2 2f3e
000000c0: 82be 7d3e b197 7fba 8a03 90bd df5f 82bd
000000d0: e0d0 043e 893d 9dbd a91a a6bd 2ae7 f43d
000000e0: bfef 683d 899c 8f3c b306 cabd 04f6 2d3e
000000f0: 175e 02be c8e6 d5bd 0198 a8bd 361a 633c
00000100: f248 7f3e 0217 a8bd 2463 2fbc 45b5 163e
00000110: dff4 2d3e a62f 82bb b848 403e 59de 713e
00000120: f3fe 683e 2ac1 0a3c dcaf 5ebc 9200 983d
00000130: f199 0cbe baf8 283e 1432 973c 45f1 fc3d
00000140: 8b1f a33d c3d9 a13d 8a0c 3c3e 6bd7 0c3e
00000150: 4cdb e63d f32c 2c3e 8be4 563e a55e 5a3e
00000160: 0d57 073e f51a f13d 2096 463e 6435 db3d
00000170: 87ad 6d3e ef9b 2abe 8a67 613e 09c1 fcbd
00000180: eed6 183e dc73 023c 9514 52bd 70f8 3b3e
00000190: cb32 8b3d f3d4 42bd 9101 afbd ff31 303e
000001a0: 6b8f 8abc 87fe 603d 4632 86bd 1cf3 3b3e
000001b0: 0b29 a03b 1236 333e 3148 9e3b 6d89 d5bd
000001c0: a950 b0bd 81e5 e2bd 6c15 18be 6834 463d
000001d0: e88b 1e3e 5b29 b43d 1db9 debd 68d3 283e
000001e0: 6927 683e 76e1 fabd 88c4 723e 3b36 8a3e
000001f0: f0b7 353a fb73 9e3d c3e3 0a3d 9d6e 10be
-0.033551704 0.08613341 0.007483625 -0.12850675 -0.049923442 -0.1949231 0.19991615 -0.12032259
-0.034266286 0.23795572 -0.18546395 0.19435368 0.23256 0.14442268 0.18328817 -0.24613544
0.04318035 -0.11013888 -0.080729395 0.059020024 -0.049159367 0.14703147 -0.048841674 0.11043006
0.25780547 0.117715575 0.1451637 0.14961916 -0.112880394 0.22007166 0.18613224 -0.11829872
0.14040826 0.011215809 -0.017675038 -0.09515419 0.23604774 0.21399891 -0.07201797 -0.072034635
0.02979266 0.17521416 -0.091304936 0.19117911 -0.09317861 0.27520525 -0.10841109 0.17176238
0.24779704 -0.0009750082 -0.07031925 -0.06365942 0.12970304 -0.076777525 -0.08110554 0.119581535
0.056869265 0.017530696 -0.09864559 0.16988379 -0.12731205 -0.10444409 -0.082321174 0.01386123
0.2493017 -0.082075134 -0.010704789 0.14717586 0.16987942 -0.0039729653 0.1877774 0.23619975
0.22753505 0.008468905 -0.013591733 0.07421984 -0.13730599 0.16501132 0.018456496 0.12350706
0.07965001 0.07902863 0.18364158 0.1375405 0.11272296 0.16814022 0.2098562 0.21325167
0.13216801 0.1177272 0.19393206 0.10703543 0.23210727 -0.16661046 0.22012153 -0.12341506
0.14925739 0.007962193 -0.05128916 0.1835649 0.06796797 -0.047566365 -0.08545221 0.17206572
-0.01691409 0.054930236 -0.06552558 0.18354458 0.004887705 0.17501095 0.004830383 -0.104266025
-0.08609135 -0.11078931 -0.14851922 0.048389822 0.15483057 0.087969504 -0.10875151 0.16486895
0.22671284 -0.122500345 0.23707783 0.269945 0.0006932011 0.07736965 0.033908617 -0.14104696

weight f4 [512, 128]
00000000: a3b5 b63c 0e65 2e3b 80c0 dfbb 420d f93a
00000010: 890b b1bc 1d73 3e3d 7e07 8f3d 3ab2 2cbd
00000020: 3365 fcbc 0e56 ef3d 8cbc febd 48b9 46bc
00000030: 8ca4 993c 22ca bb3d 1859 283d a572 c8be
00000040: 2a4d 653d 6238 943d 0bb1 88bc 5451 843c
00000050: bd53 993d 2d2b ae3c 95e6 0ebd 7b4e 563d
00000060: 0986 d7bb 8ce1 113d 13aa 6fbd c9e9 9f3d
00000070: 4e2f fabb 604d 053e acc0 193c 26ac 893e
00000080: 625b 0c3e 36ca 223d cb11 b7bb 5ebb 4e3d
00000090: 7d07 1e3d 16d5 4a3d 976c 323d d46b d3bd
000000a0: 104b 3fbd 911c 13bd 5245 37bb 91b6 8f3d
000000b0: a236 9e3d 600c e43d b753 673c 6d18 d93d
000000c0: 83e2 b83d d4c6 a6bb 517b 2d3d 53f9 2ebd
000000d0: 37e3 163d f169 7fbd fc6c 963c 5099 a03c
000000e0: 800b 383e 469e ce3b 277d 4c3d ef44 d33d
000000f0: 6295 233e 4f31 d7bc 8d4c f53d d076 b83d
00000100: 4106 943c 202f ac3d c023 993c b767 203d
00000110: a2e6 37bd ac4f 213e cebf b23d 7326 113d
00000120: 155d c73c fbd4 963d d180 8d3d 06d8 20bd
00000130: d3cc 26bf 19c5 23bd 9d61 433d c657 a83d
00000140: 06e7 e53c 87f6 313e 1c69 023e 0a31 2fbd
00000150: ef33 f13d 191b be3d 8a7c 853c ab28 fe3c
00000160: 8b20 693d 1081 403d 5789 7bbd 843a 073e
00000170: 545d 823d 9cc0 dabd 117f e43d 629f f83c
00000180: b034 2d3d 93e5 893d 173c 9f3c 1234 6f3c
00000190: 4a1c ba3d 1ca8 3b3d 3884 983d 915f 823d
000001a0: 0439 433d 908c c0b9 0864 223e 58a4 56bd
000001b0: d8e3 1f3c c648 b33d b1d7 963d 2751 9abd
000001c0: e847 1e3c 2e43 2cbe 5fde d73c d4a4 f5bc
000001d0: 049e 45bc 1765 a83e e75a 963d be2a 7b3d
000001e0: 0b88 1f3e ed04 a33d c213 083c 300e 1a3d
000001f0: 9222 e5bd c176 1abd d760 183e b3a5 8bbd
00000200: 920b b2bd df62 183b fadd 7fbd a934 113b
00000210: 783c e93c 18e4 26bd 89b4 fa3a bbe9 aebd
00000220: 23d2 953d 323d 183d 60ef 59bc dce3 91bd
00000230: 19ce 5abd 3679 e6bc 980c c93c c896 edbc
00000240: 102d dabc ddd6 a13d 0bb5 813d b238 083d
00000250: 044b 843b 8410 22bd 24fd cbbc 1533 8abd
00000260: d8a7 adbc a46d dbbc a75f d13c 7994 b0bd
00000270: 75ce e8bc 2ad6 07bd 285b 193c f801 8abd
00000280: 85ec 73bc c47f cdbc 30a2 e4bc c06e 9e3c
00000290: 03cc 74bc db88 88ba a0bd 8e3b b186 933d
000002a0: 5546 b53c 2b2b aebd e4c5 8cbd 1729 97bc
000002b0: a250 63bd d45c 9bbd 62f2 193c cf0c 9fbd
000002c0: 7c38 a63d a21b 83bd 0c4e 3d3c 46de 473d
000002d0: a87b 7cbd fb86 9b3d 50d8 f4bb bd43 133d
000002e0: f5ff 843d aaf4 f53b fc18 d4bc 6c39 103d
000002f0: c04e 51bd 30a0 3f3c d055 d2bc 2077 123b
00000300: 7790 e1bc 8db2 a5bc 7d92 a7bd 14cb 75bd
00000310: 988f 8dbd 80b9 c3bc b816 ab3c d525 56bc
00000320: c2bb 883d 10b2 2b3d b245 043d baab 0f3d
00000330: d8ec 25bd 4055 14bb aad0 4f3d 7ce7 f93c
00000340: b27f 0ebd be42 8bbd 00d3 743a 5e69 09bd
00000350: c176 aa3d 3e21 333d 370c 48bd 55ac aabc
00000360: fe47 753d fdfd ad3d b2dd 7d3b 4bf2 a93d
00000370: b520 b2bd c0b9 153c 40dd c13c b6de 9e3d
00000380: d048 41bd bc5a 3abd d42a 8d3c 80b8 65bb
00000390: 475f 8a3d c4e2 15bd 0a96 2dbd f8ac a43c
000003a0: c19d 99bd cff4 103d 571c 9d3d 204e b13b
000003b0: 407c 363b 0e4f 9dbc 7008 083d f012 37bc
000003c0: 09b0 903d 38b8 98bc e09b b0bd 92e5 87bd
000003d0: 57fe 2abd c07e cfbc badd 423d 5a3c 83bd
000003e0: 0577 ab3d ac17 a2bd 80e1 06ba b17e 40bd
000003f0: f521 c3bb f7e0 0cbc 0633 3f3d f8dc 8fbd
0.022303408 0.0026610526 -0.0068283677 0.0019001144 -0.021611946 0.0464965 0.06983851 -0.042162158
-0.030809974 0.116863355 -0.12438306 -0.012129135 0.01875522 0.09169413 0.04110059 -0.39149967
0.055981793 0.07237317 -0.016685983 0.016152062 0.07486675 0.021260822 -0.03488787 0.05232094
-0.0065772575 0.03561549 -0.058511805 0.07808263 -0.0076350337 0.13017797 0.009384315 0.2688915
0.13706735 0.039743625 -0.005586838 0.050471656 0.03858136 0.04951962 0.04356059 -0.10323301
-0.046702445 -0.035915915 -0.0027964902 0.07017244 0.07725264 0.11135173 0.01411908 0.10600362
0.09027579 -0.00508962 0.04235393 -0.042718243 0.036837783 -0.062356893 0.018362515 0.019604355
0.17973137 0.0063054888 0.049924042 0.103158824 0.15974954 -0.02626863 0.119774915 0.09007037
0.018069388 0.08407426 0.018693805 0.03916141 -0.044897683 0.15753049 0.0872799 0.03543706
0.024336377 0.073648416 0.069093354 -0.039268516 -0.65156287 -0.03998289 0.047700513 0.082198665
0.028064262 0.17379199 0.12735409 -0.042771377 0.11777484 0.09282512 0.016294736 0.031025251
0.0569158 0.046998084 -0.061410274 0.13205916 0.06365457 -0.106812686 0.111570485 0.030349437
0.042286575 0.06733241 0.019437833 0.014599817 0.09087427 0.04581462 0.07447094 0.06365884
0.047661796 -0.0003672582 0.15858471 -0.052402824 0.009758912 0.08754115 0.073653586 -0.0753501
0.0096606985 -0.16822502 0.026351152 -0.029985823 -0.0120616 0.32889625 0.07341557 0.06132006
0.1557924 0.07959924 0.008305492 0.037611187 -0.111882344 -0.03771091 0.14880691 -0.06818714
-0.08693613 0.002325229 -0.062467553 0.0022156632 0.028471217 -0.04074487 0.001912729 -0.08540674
0.07315471 0.037167735 -0.0133017 -0.07123539 -0.053419206 -0.02813397 0.024542138 -0.029002562
-0.026632816 0.0790231 0.06333359 0.033257194 0.004037263 -0.03956653 -0.02490098 -0.067480244
-0.021198198 -0.02678568 0.025558306 -0.08622069 -0.028418759 -0.033163227 0.009360112 -0.06738657
-0.014887934 -0.025085337 -0.027909368 0.01933992 -0.014941218 -0.0010416763 0.004356101 0.07203425
0.022128263 -0.085043274 -0.06873682 -0.01845221 -0.05549682 -0.07586065 0.0093961675 -0.07766115
0.08116242 -0.06401755 0.011554252 0.04879596 -0.061641365 0.07594105 -0.0074720755 0.035953272
0.064941324 0.007505973 -0.02589082 0.03521101 -0.051100492 0.0116959065 -0.025675684 0.0022348836
-0.027534707 -0.020226741 -0.08182237 -0.060008124 -0.06912154 -0.023892164 0.020884857 -0.013070543
0.06676437 0.04191786 0.03229303 0.03507588 -0.040509075 -0.002263382 0.050736107 0.030505888
-0.03478975 -0.067998394 0.0009339303 -0.03354775 0.08323432 0.043732874 -0.048839774 -0.020834127
0.05988311 0.0849571 0.0038736877 0.08298167 -0.086976446 0.0091385245 0.02366507 0.077573225
-0.04718858 -0.045496687 0.017232336 -0.0035052598 0.06756454 -0.036593214 -0.042379417 0.02010201
-0.07500792 0.035389718 0.07671421 0.0054109246 0.0027845055 -0.019202735 0.03321117 -0.011173949
0.07064826 -0.01864253 -0.08623481 -0.06635584 -0.041746464 -0.025328994 0.047574736 -0.064079955
0.083723105 -0.07914671 -0.00051452965 -0.046995822 -0.0059549757 -0.008598558 0.04667952 -0.07024568

bias f4 [512]
00000000: 7d25 fe3d d889 393d bae5 a13d ad82 c33d
00000010: 4033 803d b5db 1f3e 99c8 723d dfcc e5bc
00000020: 3838 483c 6d6a 163e b696 963d d615 9b3d
00000030: a72b cf3d c824 ee3d cf3c 9e3d 98ec 1a3e
00000040: c97b 1cbd e29f e73d 6c47 313c d874 053d
00000050: bb5e 063d 1a54 ee3c 1622 4e3d 48ab ef3d
00000060: 5630 2b3d dd4c cb3d b2bb 05bc e69d fb3c
00000070: 935b 723d d848 e53c bd1e 72bd 5b20 053e
00000080: 27f7 173e 3cd3 0c3e 752b 893d 931c a9bd
00000090: d702 6fbd 54f3 143e dbca d73b 5bfd d93d
000000a0: e98a f2b9 3eff 9c3d 328c 213e 0692 053e
000000b0: b506 99bb 9344 f43d 719c 743d 6dcc f23c
000000c0: cef9 b93d e3ad 143e 90d3 bb3c d38b 913d
000000d0: 57ab c03d 9252 fd3d 3a7e 14bd 74cb b33d
000000e0: 70e1 0a3d b7a5 d93d ad33 e53d d3fa 4d3d
000000f0: 2991 65bc 25e0 8f3b b0e2 ec3d 58cb bb3c
00000100: 439f ee3d fe8f 293e c63b 7dbc 5b08 9b3d
00000110: 18a6 4ebd e8ac 863d 0bdc 073e a8b4 563d
00000120: e646 ab3d f6e0 4c3d 6b84 ed3d 0bed bd3d
00000130: b072 cb3d d3ec 8d3d 5b7a 193e f7db db3c
00000140: 4f8e 62bc fa29 303d a7dd df3d e99a 833d
00000150: b4d1 963c be46 513d f7a9 a23b 62c6 6abd
00000160: e855 393d 8896 e6bb 82f6 263e 07de 0abc
00000170: 9872 d43c 4310 0c3e 5043 673d d975 243e
00000180: d74b 84bd 00a8 313d d7b6 e93d cde0 ed3c
00000190: 64d1 05bd e578 613d 044c efbc 3cdf b43d
000001a0: 6f0a 16bc b14a 5e3d 7c67 6a3d eaf4 2e3d
000001b0: 4756 f33d 8a30 6cbd 5aed c53d 5b40 f63b
000001c0: aeb8 1dbd 98b1 8b3d d130 d93c f78c 0e3e
000001d0: 107b 53bd a5df 04be 560e 36bc 3149 b73d
000001e0: 48a1 0e3e f8e1 c63d bb9c 283e 6c5d 253e
000001f0: df2c 0cbd 27c3 8cba f2b0 babd 68f0 6bbc
00000200: ae19 40bc 801e 6c3b bd04 5c3d 7cc2 173d
00000210: 16c2 533d 03bf 303d 6e27 1d3e d069 edbb
00000220: c478 c4bc 6963 0c3e 6144 213e f166 943d
00000230: 9f50 be3d 76d6 123e 2c49 f03d 362d 373d
00000240: b466 823d 3bcb ac3d 30fb e33d b963 e43d
00000250: e478 233d 7d07 163e df09 743c 13dc 953d
00000260: f516 933d eb2f 493d ee48 783d e720 a73b
00000270: 684c e23d 3078 0a3d 5c89 413d 18c0 9a3d
00000280: 0d2c 013e ae98 eebc 0cdb ea3c b0cf d13d
00000290: c01d ff3d fd5a cfbd 6501 82bd 05ce 68bd
000002a0: cb76 773d 0a12 963d 6163 ce3c d916 cb3d
000002b0: 5341 0b3e 881f 953c 5b08 85bd e19d 723c
000002c0: 1f1d 2f3d 27a8 3cbc c1a8 083e f92d 263e
000002d0: e267 003d 07c2 05bc 9341 aa3d d006 d83d
000002e0: be5c 89bb 33a1 2dbd 3cb1 ab3d 59c2 49bd
000002f0: 9cf1 083e a523 d33d f0bd 283d 16f2 133e
00000300: 6c67 4ebd 6d2e c3bc 10cb 0e3e dcdd aabd
00000310: 5edc 8f3d 3824 0d3d 109b 143e 808c f0ba
00000320: 2ccc 3b3a 5170 bc3d e6d7 4a3b 68f5 1f3e
00000330: b399 0b3d 3ed6 71bc 12ae 063e f93a 1dbd
00000340: 06c9 103e 9755 21bc 2a80 3dbc 76df 663c
00000350: aa85 d63c e295 d63c c8e4 9f3d 1a16 fd3c
00000360: e285 013e 6cbe ba3d ce48 133e 50c7 aabb
00000370: ee69 4a3d 22d4 623d 152c cf3d df59 b53d
00000380: 1187 d53c b653 f03d 5430 1e3e bc91 8a3d
00000390: 3d42 2c3e 542a 3dbb d73a 0f3e 8a79 903d
000003a0: 5b18 463c 664b f1bc 8e9d 0d3e d83d ac3d
000003b0: 4136 6b3c 73df 163e ea52 a13d a954 043e
000003c0: 394c 853b 9e1c de3d e1bc 9e3d b3bb f23d
000003d0: 3869 223e b29a b8bc f3ba 9c3c f574 003e
000003e0: ff20 b03d 6578 803b ac60 883d 242f 143d
000003f0: 666f d13d fe63 0e3e 6a94 90ba eea0 933d
0.12409494 0.045297474 0.07905145 0.09546409 0.06259775 0.15611155 0.059273336 -0.028051792
0.012220435 0.14689036 0.073529646 0.07572524 0.10115748 0.11628109 0.07726442 0.15129316
-0.03820399 0.11309792 0.010820251 0.032582134 0.032805186 0.029092837 0.050325476 0.11702591
0.041794144 0.0992677 -0.008162426 0.03071494 0.059169363 0.027988836 -0.059111346 0.13000624
0.14840375 0.13752455 0.06697742 -0.08257403 -0.058352318 0.14545947 0.0065854616 0.10644027
-0.00046261333 0.07665871 0.15776137 0.13043985 -0.004669989 0.11927142 0.059719507 0.029638493
0.090808496 0.14519458 0.02292803 0.071067475 0.094076805 0.12369265 -0.03625319 0.0877904
0.0339064 0.10627311 0.11191497 0.050288033 -0.01401166 0.004390734 0.11566675 0.02292411
0.116514705 0.16558835 -0.015456146 0.07569953 -0.050451368 0.06575948 0.13267533 0.05241838
0.08363132 0.050019227 0.11597522 0.09273728 0.09933984 0.06929936 0.14988081 0.026838286
-0.013827874 0.043008782 0.10930949 0.06426031 0.018410541 0.051092856 0.004964109 -0.0573181
0.045247942 -0.0070369877 0.16304973 -0.008475787 0.025933549 0.13678078 0.05646068 0.1606058
-0.06459778 0.043373108 0.11411827 0.029037857 -0.032670394 0.055046935 -0.029211052 0.08831641
-0.009157761 0.05427045 0.057227597 0.042714037 0.118816905 -0.057663478 0.09664412 0.007514996
-0.038506202 0.06820983 0.026512535 0.13920961 -0.051631033 -0.12975939 -0.011111816 0.08949507
0.13928711 0.09711069 0.16466038 0.16148919 -0.03422248 -0.0010739312 -0.09115781 -0.014400579
-0.0117248725 0.0036028922 0.053715456 0.03705071 0.051698767 0.043150913 0.15347072 -0.00724528
-0.023983367 0.13709797 0.1574874 0.07246197 0.09292721 0.14339623 0.117327064 0.04472085
0.06367245 0.08437201 0.111318946 0.11151833 0.039910212 0.14651294 0.014894932 0.073173665
0.07182113 0.049117964 0.060616426 0.005100358 0.110497296 0.033806026 0.047250137 0.0755617
0.1261446 -0.029125538 0.028668903 0.10244691 0.12456846 -0.101247765 -0.06347922 -0.0568371
0.060416024 0.073276594 0.025193872 0.09916467 0.13599138 0.018203512 -0.06495734 0.014808149
0.04275238 -0.0115147 0.13345625 0.16228475 0.03134907 -0.0081639355 0.083132885 0.105481744
-0.004191964 -0.04239006 0.08383414 -0.04925761 0.13373417 0.10309533 0.041196764 0.14447817
-0.0503916 -0.023825848 0.1394465 -0.083430976 0.070244536 0.03445837 0.14512277 -0.0018352419
0.0007163908 0.0920111 0.003095144 0.15620959 0.034082126 -0.014760552 0.1315234 -0.03838632
0.14139184 -0.009847066 -0.011566201 0.014091363 0.026186783 0.026194517 0.078073084 0.030894328
0.12648728 0.09118351 0.14383242 -0.005211748 0.04941743 0.055378087 0.1011583 0.08855032
0.026065381 0.117347166 0.15448123 0.06766078 0.16822143 -0.002886434 0.1398729 0.07054432
0.012090768 -0.029454898 0.13829634 0.08410233 0.014356197 0.14733677 0.07877143 0.1292292
0.0040679243 0.10845302 0.077508695 0.11852207 0.1586045 -0.022534702 0.019132113 0.12544616
0.086000435 0.003920602 0.06659064 0.03617777 0.10226326 0.13905331 -0.0011030559 0.07208429

weight f4 [128, 512]
00000000: 0c2e a43b b370 f43c 0f2c 523c f430 973d
00000010: 4ba6 6d3d 7590 9f3c 34aa 753d 5ff7 933d
00000020: d2ed a63d e898 023d d828 2f3d b818 a63d
00000030: f67e 3e3d 9985 263c e305 a43d 58b9 833d
00000040: 64fb aabc 69ff fc3b c961 6b3d f0ff 0d3d
00000050: 0cc0 903d 3086 1b3d 3de0 3e3d e2fb c33c
00000060: 2cc5 653d f99d 3d3d a638 a93c cb59 aa3c
00000070: c6dd 8d3d fbb7 4b3c 871b 09bd e88f 8f3c
00000080: 2223 de3b 5526 623d 0cd8 943d ac94 42bd
00000090: 230e e0bc 6160 673d ee53 123d daa8 b83d
000000a0: 1165 653c 902f 973d 2c5d 213c 0773 813d
000000b0: 12a4 5e3c a0d7 fe3b 676c 68bc 1158 3a3d
000000c0: 9f85 2a3d 9bda 5a3c 5ebf 883d 18ec 493d
000000d0: 06f5 a63d d50e 3f3d 7c22 03bd 3a41 833d
000000e0: 11cf 783d 874d 123d a74e 953c 3093 923c
000000f0: cd69 fa3d c6b9 2dbc 9d2e ae3d 2891 853b
00000100: 6aa9 353d 1ed9 b33d 607c 853c acd4 113c
00000110: c828 2abd 73d2 873d 3f6a 053c 6cc2 dc3c
00000120: 03c0 b73b 1554 173d e954 a63d ad05 0d3d
00000130: 8be7 d33b b6e0 133d a34a b13c 8ed3 623d
00000140: 894b 9a3d 3a91 a73c a4b9 873d c9e9 5e3c
00000150: 6ded cc3c 7406 093c 581b 453d ec03 0ebd
00000160: e18c f43b f754 943d fd62 9f3d b241 1ebb
00000170: a27c 313c 593b 273d 7ba8 943d 9cfe 403d
00000180: bd91 f339 3828 413d 83d6 543d a6a1 093d
00000190: fbee 1a3d 7c2e 3b3c 2b2d 12bd 8bc1 453d
000001a0: 168b a03d cf0a b0ba 0750 ad3d 0b89 233d
000001b0: 3906 903c ced7 ed3b 4995 9c3d a72e e1b8
000001c0: aecf 24bd 73e3 b13d 7664 b43d 8e2b c33d
000001d0: 5995 7ebb db41 32bf 3df0 fb3c bd63 483d
000001e0: 19d9 383d 81bc b43d f6c1 e83b cc03 7a3d
000001f0: 307c 783c 0130 7f3d 19b9 b9bb 686a 7a3c
00000200: 42e5 eebc daf7 cebc acaf 943c ec69 ba3d
00000210: b410 9f3d fab0 92bb d196 833c 8286 903d
00000220: a581 073d c047 6f3c 3660 4b3d 207f 803d
00000230: c3df 563c ae0d 9a3d 38f9 653d bbaa a93d
00000240: 8fed 1e3d 2e09 853c d77a 3b3d c9b1 513d
00000250: 9555 ae3d 0659 153d 7d94 893d 8096 08bd
00000260: 7e09 8a3d 73f4 00bd 9fcf 8f3d a79f 313d
00000270: def5 3e3d 8c08 923d 3b51 bfbc 8cbd 263d
00000280: b541 d03c 5982 263d 5b4d 653d 5c02 7f3d
00000290: 6782 323c ffe4 52bd 2038 9abc 8ac0 123d
000002a0: 3488 2b3d 7a00 463d 0f4f a43d d855 283c
000002b0: 78b7 b23d ed33 653d daa0 693c 5387 343d
000002c0: 5556 9c3d 0aaf 7d39 3cf7 893d 0c58 903d
000002d0: 47ee be3c 10d7 9cbe ada4 343d 1529 8e3d
000002e0: 4f05 b63c 976c a2bc d2fa 953c b099 ba3c
000002f0: 326b 9f3c 34fa ac3d 0e2e 7d3d c34c 7f3d
00000300: 8e51 183d 9dfd b63c f9a5 ec3b d96d 373d
00000310: 61e5 a33d b8be 1b3d 2ab4 a33b 2e59 22bd
00000320: cc52 5f3d 9147 f13c c808 6b3c 32f7 b83d
00000330: dfe5 893d aa2f b23c 4b82 833c afa9 b9bc
00000340: cd8d b43d 8775 933d b82d df3c 0fdd 973d
00000350: 4af1 273d 4e3d f53c 8372 983c 04d2 9b3d
00000360: f0f4 b43d d140 d53c b1b5 2f3d 54aa 9f3c
00000370: 1376 6e3d c4c1 8f3c e53e e13c 5f69 9c3c
00000380: 8183 c8bc 5622 3f3c 9380 903d c930 893d
00000390: 6781 013d 2abd 9a3c 0f8a 633d 605f e13c
000003a0: 48c8 873c ee4f 42bd 6ace 383d d9b4 dd3c
000003b0: cebe 8c3d 184d 053c 8eec 203d dc17 8e3d
000003c0: be1f 033d 54da 863d 57cd ab3d 02e1 a33d
000003d0: d92c 683d 6aa4 0cbd 5b5e 803d 55c7 e43c
000003e0: 88a8 8b3d 5c27 573d 83af 5f3c e87e 4f3c
000003f0: fcca 813c 7fa7 a73d 49bc 9e3d 92dd 5e3d
0.005010372 0.029838895 0.012827887 0.07382384 0.058019917 0.019478062 0.05997677 0.07224917
0.081508294 0.031884104 0.04276356 0.081101835 0.046507798 0.010163688 0.08008935 0.06431836
-0.020871826 0.007720877 0.057466302 0.03466791 0.0706788 0.037969768 0.04660057 0.023923818
0.05609624 0.046293233 0.020656895 0.02079477 0.069270656 0.012434001 -0.033473518 0.017524675
0.0067790905 0.055212338 0.0726777 -0.047505066 -0.02735049 0.0564884 0.035724573 0.09016581
0.014001147 0.07382119 0.009848874 0.06320768 0.013588922 0.0077771693 -0.014186001 0.045494143
0.041631337 0.013357784 0.066771254 0.049297422 0.08152203 0.046645004 -0.03201531 0.06408925
0.06074435 0.035718467 0.01822598 0.01789245 0.12227211 -0.010603374 0.085049845 0.004076142
0.04435102 0.08781646 0.016294658 0.008900803 -0.0415428 0.06631937 0.008143007 0.026948176
0.0056076064 0.03694542 0.08121664 0.03442924 0.006466811 0.036102973 0.021642035 0.055377536
0.075339384 0.020454992 0.06627205 0.013605543 0.025015557 0.008363355 0.04812178 -0.03467171
0.007463083 0.07242768 0.077825524 -0.0024148044 0.010832937 0.040828083 0.072586976 0.047117814
0.00046457155 0.047157496 0.051962387 0.033601426 0.037825566 0.011424657 -0.035687607 0.04828028
0.078390285 -0.0013430956 0.0846253 0.039925616 0.017581092 0.007258392 0.076456614 -0.00010737526
-0.04023712 0.086859606 0.08808224 0.09529792 -0.0038846342 -0.6963174 0.030754203 0.048923243
0.045128915 0.08825017 0.0071032 0.061038777 0.015166327 0.06230164 -0.0056678173 0.015284158
-0.029162053 -0.02526467 0.018150173 0.09102234 0.07766858 -0.0044766637 0.016063126 0.07056905
0.033082623 0.014604509 0.0496523 0.06274247 0.013114872 0.075221404 0.056145877 0.082845174
0.038800772 0.016239729 0.045771446 0.05119494 0.08512417 0.036461852 0.06717775 -0.033346653
0.06740092 -0.031483125 0.070220225 0.043365147 0.046621196 0.071305364 -0.023354163 0.04070811
0.025421957 0.040651653 0.055981975 0.06225811 0.010895348 -0.05148792 -0.01882559 0.03582815
0.04187794 0.0483403 0.08022892 0.010274373 0.087264 0.055957723 0.014259541 0.044074368
0.07633654 0.00024193167 0.06736609 0.070480436 0.023306979 -0.3063283 0.04410236 0.069414295
0.022219328 -0.01982717 0.018308077 0.022778362 0.019460294 0.0844616 0.0618115 0.062329065
0.03718715 0.02233773 0.007221934 0.044782493 0.08002735 0.03802368 0.0049958425 -0.03963583
0.05452232 0.02945307 0.014345355 0.09031524 0.067332976 0.021751244 0.01605334 -0.02266392
0.08816109 0.07200151 0.02724348 0.074152105 0.041001596 0.029936459 0.018609291 0.07608417
0.088357806 0.026031883 0.042897884 0.019490398 0.058218073 0.01754845 0.02749581 0.019093214
-0.024476768 0.011665901 0.070557736 0.06698758 0.03161755 0.018889029 0.055551585 0.027511299
0.016574994 -0.04743951 0.045118727 0.027063774 0.068723306 0.008136056 0.039288096 0.069381446
0.032012694 0.065846115 0.08388775 0.08001901 0.056683395 -0.034336485 0.06267997 0.02792708
0.06819254 0.05252777 0.013652685 0.012664534 0.01584386 0.08186244 0.07750756 0.054410525

bias f4 [128]
00000000: 2e54 bd3d c43b 8b3d f99a a3bc 268c 913d
00000010: cf38 c43d af8b 783d f562 2bbd 0ff3 ed3c
00000020: 22e5 b43d c7e8 7e3d c7d0 cf3d 8a04 21bc
00000030: 2265 8ebb 406c 8f3d 04eb 26bc cfb3 9dbc
00000040: 7e86 913c bc7b cf3d 0889 6a3c 98a8 963c
00000050: 7ea2 4c3d 5617 26bd 4019 f83a 9721 2fbd
00000060: b796 3cbd 5178 1fbd 3417 bb3d b935 ad3d
00000070: efe4 98bc cdee 003d 9dbd 973d ca73 1b3d
00000080: 4154 183d 1283 0f3d fe09 383d 6ec7 1a3d
00000090: 290b d43d f4ac 9b3d 5ecf 823d 31a2 993c
000000a0: 6d7f 513d 4adf da3d 8ae5 e23d e5b3 8b3d
000000b0: 8b44 0d3d bb42 14bd 2d71 fd3b 9353 c0bc
000000c0: a815 f53c d509 313d 9e6a 1cbd 66d9 983d
000000d0: d1ff eb3b 699e 43bd c27c cfba 095e 3cbd
000000e0: 2a17 7e3d fc61 d33d 33d5 283d 43f6 123d
000000f0: fa1f 113b 6fcd b43d 7610 103d 3fdd 6d3d
00000100: 983e 303c f0f6 c83c 688d d73d 25aa 3f3c
00000110: ce64 2a3c c5f4 443c 8c33 863d d91e 3bbd
00000120: 0070 183c 2898 e4bc 155e 803d 3e90 bc3a
00000130: 721b 183d d69c cebb 365b d23d dd5c 263d
00000140: 660c c0bb c8bd d73d e52f e5bb f1e8 35bd
00000150: 8014 013d bfd5 bb3d dc8a e3bc a517 b73d
00000160: bc36 12bd da40 0bbd 120a 873d c056 113d
00000170: 5ecf 23bd e508 a33d c035 bc3d c885 ce3d
00000180: 8e66 f43c cbb3 cebc b3c3 d53c 7de3 683d
00000190: b840 1f3b 2456 ba3d 0dcf 16bd ead7 d2bc
000001a0: 3c85 72bc d3e4 133d 2e6a 553c a6df c03d
000001b0: 0980 1abd 5849 863d 0972 c73d dda6 803d
000001c0: 0f69 e33c 9b00 c83c c662 dd3d 2ced 2d3c
000001d0: e8ec a53d 246e 363d 0aba 5f3d 3395 983d
000001e0: 1758 e3bc e4f0 a73d fde6 c23d 7a37 8cbc
000001f0: 04fe c6bc 47ad 923d f120 b23d 2a79 a6bc
0.092445716 0.06798509 -0.019971358 0.07106809 0.09581148 0.060680088 -0.04184242 0.029046563
0.08832766 0.062233713 0.10147243 -0.009827742 -0.004345552 0.07003069 -0.010187868 -0.019250778
0.017764326 0.10131022 0.014314897 0.018390939 0.049959652 -0.0405496 0.0018928424 -0.042756643
-0.04604217 -0.038933102 0.09135285 0.084575124 -0.018663852 0.03147774 0.07409213 0.037952222
0.037189726 0.035037108 0.044931404 0.037787847 0.10353691 0.076013476 0.063872084 0.018754097
0.051146913 0.1068712 0.11078937 0.068214215 0.034489196 -0.03619645 0.007734439 -0.023477351
0.029917553 0.043222267 -0.038187616 0.074633405 0.0072021266 -0.047758494 -0.0015830027 -0.045988116
0.06203381 0.103214234 0.041218948 0.035879385 0.0022144304 0.08828246 0.03517195 0.058072325
0.010757111 0.024531811 0.10525018 0.01169828 0.01040001 0.012021248 0.065528005 -0.045683715
0.009304047 -0.027904585 0.06267945 0.0014386249 0.03713555 -0.0063053174 0.10271303 0.040615905
-0.005860853 0.10534245 -0.006994235 -0.044411603 0.03151369 0.09171628 -0.027776174 0.08940057
-0.03569673 -0.033997394 0.06593718 0.035483122 -0.039992683 0.07960681 0.091899395 0.100841105
0.029834058 -0.025232216 0.026094293 0.056857575 0.002430005 0.09098461 -0.036818553 -0.025737721
-0.014802273 0.036106896 0.0130258035 0.094176576 -0.03771976 0.06556958 0.09738547 0.06281827
0.027760057 0.024414351 0.10809855 0.010615628 0.08101827 0.044538632 0.05462078 0.074503325
-0.027751965 0.08200243 0.09516714 -0.017116297 -0.024291046 0.07161956 0.08697689 -0.020321447

weight f4 [32, 128]
00000000: c2f2 da3d 7ca7 723d 6397 a3bd f48e 2d3d
00000010: c45a e23c 7f9b 85bc ba41 83bd 814a 5cbd
00000020: 5c8a aabc 696c 043e e9de e43d 9a5f 8abd
00000030: d2f6 45bc f957 d23d 4195 a0bd 15b7 7ebd
00000040: cc9c 3bbc 959c 9a3d 51d5 59bb ae2f 33bd
00000050: 9e17 27bd 3e93 623d 78b1 42bd 61ae 2abd
00000060: 5595 82bd 1e5c 083d c5d1 733d 18f7 ee3d
00000070: 4c7b b23c e71c 2ebd 3ef3 a13d 2cdd 28bb
00000080: 66c0 cabc 0349 083e 98d4 133d 7661 f63d
00000090: 8fc7 1cbd 88f0 e03c 2481 ee3d 1b28 6cbd
000000a0: d26b 853c 6db8 e33d de0a 063e 252c e03d
000000b0: b1ea fd3d 3081 80bc e097 993d e866 a6bd
000000c0: eda6 93bd 7dbc c13d a705 b03d da66 b43d
000000d0: 5ad4 9dbd df03 3dbd ab99 613d fd2e 84bd
000000e0: 20af 9c3d df36 da3d 51f8 eb3d 7579 6b3a
000000f0: 8b30 153d 78c3 4e3d bc1d 313d 0a4f 6a3d
00000100: 3706 4dbd 371b 94bc 4d58 803d 5005 85bc
00000110: f182 0c3d 8d70 693d df58 7c3d 931f b93d
00000120: f869 5abd b807 9b3c a553 7f3c 612a 18bd
00000130: 279f 34bd c30a 80bd 6c24 2dbc 81a9 093e
00000140: 4342 98bc ef26 853c 3365 b4bc de28 ba3d
00000150: c6ff 5d3d ba8f b13d d5e6 b23d 896b ee3d
00000160: 6722 c13d dd3d 8e3d ec8b b63d 7df6 423d
00000170: b551 0ebd e249 0c3e 2d90 cc3c 98f5 1d3d
00000180: b491 e3b9 ac62 d03c fec2 87bd 5875 cd3d
00000190: e569 ca3b 5a73 8d3d 376a a2bd 5c04 c83c
000001a0: 40ea d63a bbf2 8b3d dedf f9bc e883 ac3d
000001b0: 6dfc 2fbd 4a5a 723d 9d04 0b3e 4ad1 6a3d
000001c0: 76d7 99bd b93d a0bd 115a 4d3d 9072 65bd
000001d0: 2d01 6e3d 410a b73c e766 0fbd 3b80 e63d
000001e0: d312 a43d aa6d 98bb 5448 983d f2de 41bd
000001f0: b3ef 35bd 1134 b2bc 0a1b adbc dd46 d73c
00000200: 142f a5bd bdfe 7d3d cf28 62bd b272 fbbc
00000210: 2e60 2bbd 8fcd d03c 92d8 0b3d 536b 95bd
00000220: 4698 b5bd 06e3 983c 9e81 843d bfa5 93bd
00000230: 64ac a73b 8ef8 bebd c839 223c f4d4 81bc
00000240: 043e ab3d e46d 5a3d 1106 5939 8f57 223d
00000250: 1749 3abd 11b8 523d f076 ca3b 63bf 983c
00000260: 9f36 86bc c08d c2ba def6 2f3d 8fdf 6d3d
00000270: 386e 79bd d77c 59bd 7d67 0ebd 7672 aebd
00000280: 7f0d b6bc 7337 2c3c 347a a3bd 2a07 c4bd
00000290: 1337 ce3c 752f c5bc 81b1 69bd c90f b3bb
000002a0: ebd8 89bd 7a0b 31bd 7acc 573d 4072 b5bd
000002b0: 0232 753d 30fc a13c 985b 023d d3bd 623d
000002c0: e9ad b1bc dc6a cc3c 9125 9e3d 5629 513d
000002d0: d0d0 ddbc 92f8 63bd c902 08bc 79d3 b6bd
000002e0: 793c 7dbd 6e9c 4b3d 2fe7 c5bc bf7c 50bd
000002f0: a9f4 c637 fa88 38bd bf02 99bc dede 3f3d
00000300: 5ddc a23d d010 263d f17d 48bc 9c7a a23d
00000310: d422 8fbb 314c ffbc 5eb4 fabc 8906 22bd
00000320: 20b2 68bd ceec 2ebd 833b 2abc 6285 783d
00000330: d7db 343d ca55 63bd 12fb 9bbd 8cb6 de3b
00000340: f612 6ebd b97e 043d 1bdf a43d 3d33 1abd
00000350: 368e 433d a1ba 5fbd a93f 32bd dc84 aabd
00000360: 5134 f1bb 8771 a1bd 9dc7 d7bc 5be2 8bbd
00000370: 68d6 b0bc c5cb 97ba c0bc 5abd b1c7 343d
00000380: 012e 80bd 5c7d d53c 75b1 75bd 281d 33bd
00000390: 4c2f 19bd 426b 1b3d da03 86bd e9ae a6bd
000003a0: d397 923d bfab 78bd 8f5e 263d b319 02bc
000003b0: 3808 19bc a608 edbc d9f4 903d bc95 d93c
000003c0: 6c5e 5bbd eac6 2e3d e87d 593d 6e3c 93bd
000003d0: df9f bdbb 9d17 08bc f8a5 9ebd 489a c2bc
000003e0: 6f6c 45bd d98b aa3c 5044 803d 2134 4d3d
000003f0: 3dce 9a3d 5fd2 a83b ebd0 bcbd 7f08 f03c
0.10690834 0.059241757 -0.07987859 0.04237266 0.027631171 -0.016309498 -0.06409021 -0.05378199
-0.020817928 0.1293198 0.11175329 -0.06756516 -0.012082772 0.10270686 -0.07840968 -0.06218632
-0.0114509575 0.07549397 -0.0033238719 -0.043746643 -0.040794007 0.055316202 -0.04753253 -0.041670207
-0.06376139 0.033290975 0.059526224 0.11668223 0.021787308 -0.042508032 0.07907723 -0.0025766594
-0.024749946 0.13309102 0.036091417 0.12030308 -0.03827625 0.027458444 0.11645725 -0.057655435
0.016286764 0.11119161 0.13090083 0.1094592 0.123982795 -0.015686601 0.07499671 -0.081250966
-0.07209573 0.094597794 0.08594828 0.0880868 -0.077065185 -0.04614627 0.05507819 -0.06454275
0.0765059 0.10654997 0.11521972 0.0008982637 0.036423247 0.050479382 0.043241248 0.057204284
-0.050054755 -0.018079383 0.06266842 -0.016237885 0.034304563 0.056992102 0.06160819 0.090392254
-0.053323716 0.018924579 0.015583907 -0.03714979 -0.044097092 -0.06252053 -0.010567766 0.13443567
-0.018586284 0.016253917 -0.022020912 0.09089826 0.054199003 0.08669992 0.08735434 0.116416045
0.0943039 0.06945393 0.08913407 0.04759835 -0.03474589 0.13700059 0.024971092 0.038564295
-0.0004340537 0.025437675 -0.06628989 0.10032147 0.0061771744 0.06906767 -0.07930415 0.024416141
0.0016396716 0.068334065 -0.030502256 0.084235966 -0.04296534 0.059168138 0.13575979 0.0573285
-0.07511799 -0.07824273 0.050134722 -0.05601746 0.05810659 0.022343757 -0.035010245 0.11254927
0.08011403 -0.004651745 0.074356705 -0.047331758 -0.044418048 -0.021753343 -0.021131057 0.026278907
-0.0806562 0.062010515 -0.0552147 -0.03069434 -0.04183977 0.025488643 0.034142084 -0.07295861
-0.088669345 0.01866294 0.06470035 -0.07209348 0.005116986 -0.09324752 0.009901471 -0.015848614
0.08361438 0.053327456 0.00020696993 0.039634284 -0.04547986 0.05144507 0.0061787292 0.018645948
-0.016383467 -0.001484327 0.04296004 0.05807453 -0.06089613 -0.053097572 -0.034766663 -0.085179254
-0.022223232 0.010511267 -0.07982293 -0.09571679 0.025172746 -0.02407048 -0.057054047 -0.005464528
-0.06730827 -0.043223836 0.05268524 -0.08859682 0.059862144 0.019773573 0.03182563 0.05535681
-0.021689372 0.024953298 0.07722009 0.05106481 -0.027077109 -0.055656977 -0.008301445 -0.08927054
-0.06182525 0.04970973 -0.024158088 -0.050900217 2.3717368e-05 -0.045052506 -0.018678067 0.046843402
0.07952187 0.040543377 -0.012237058 0.07933542 -0.0043681655 -0.03116426 -0.030603584 -0.039557014
-0.0568105 -0.042706303 -0.010390165 0.06067408 0.044154968 -0.055501737 -0.07616247 0.0067966636
-0.05812355 0.032347415 0.080503665 -0.03764652 0.047743045 -0.054621343 -0.043517742 -0.08326122
-0.007360973 -0.07882982 -0.0263403 -0.06830283 -0.021586612 -0.0011581114 -0.053402662 0.044135753
-0.062587745 0.026060753 -0.05998369 -0.043728977 -0.03739862 0.037944086 -0.065437034 -0.0813883
0.071578644 -0.060710665 0.04061752 -0.0079406975 -0.009340338 -0.028934788 0.07077951 0.026560657
-0.053556845 0.042670168 0.05309859 -0.071892604 -0.0057868804 -0.008306411 -0.077465 -0.023755208
-0.048199113 0.020818638 0.062630296 0.050098542 0.07558868 0.0051520313 -0.092195354 0.029300926

bias f4 [32]
00000000: d226 053e fb72 983d 7be5 0d3c 55a1 d83a
00000010: b516 663d d71b 393d d23b e93d 8534 12bd
00000020: 29ce 033e 912e 933d 2593 0b3e ddbe a7bd
00000030: 9ac8 58bd 003a 3ab9 dffe 9ebd 107e 44bd
00000040: 6b35 0f3c 26c0 803b f150 ccbc 9d12 553b
00000050: 7c16 993d 9cf8 f03d 3f4c b03d 8cf9 44bd
00000060: 8bfc 683d 168c cdbb 5026 a5bc 6aef 9cbd
00000070: 07c9 dcbc 30e2 103d f0d5 c1bb 1f81 0ebc
0.1300309 0.07443806 0.008660669 0.0016527573 0.056174 0.045192566 0.11388363 -0.035694618
0.12871613 0.07186616 0.1363035 -0.08190701 -0.052925684 -0.00017759949 -0.077634566 -0.047971785
0.008740763 0.003929156 -0.02494094 0.0032512315 0.07474992 0.117661685 0.08608293 -0.04808955
0.05688147 -0.006272803 -0.02015987 -0.07662852 -0.026951326 0.03537196 -0.005915396 -0.008697777

weight f4 [1, 32]
00000000: 7e79 343e f125 84bc eaab 2dbe 526a 09be
00000010: 569c 07be 116f 02ba fd43 083e b406 83bd
00000020: 92c0 233e f341 25bd 2c63 5b3e 920f dbbb
00000030: ae76 f33d 009f 4ebb 4194 0dbe 080c 843d
00000040: 0aab ccbb b338 8e3d dc36 e9bd c9fe 413e
00000050: abdf 77bd aed8 c13d 18ad 543d 8937 b9bc
00000060: b059 07bd fb4d 83bc c6da 2d3d c7e2 18be
00000070: d946 f0bd e8a9 2b3e 207c ec3c 1e58 fb3d
0.1762447 -0.016131373 -0.16960111 -0.13419464 -0.13243231 -0.00049756566 0.13307185 -0.06397763
0.15991428 -0.040346097 0.2142455 -0.0066852057 0.11887871 -0.0031527877 -0.13826086 0.06447607
-0.0062459754 0.06944408 -0.11387417 0.18944849 -0.06051604 0.094651565 0.051922888 -0.022609489
-0.033044517 -0.016028395 0.042444967 -0.14930259 -0.11732263 0.16764033 0.028867781 0.122726664
